saved_models/lin-aug/2024-06-04_23-12-37.pt (torch, 50848 bytes, 1 tensors)

module.1.weight f4 [1, 12288]
000000 85 36 5b bc 43 69 34 ba 59 7a 35 3b 1e c1 03 bb
       -0.013379698 -0.00068821403 0.0027691333 -0.002010412
000010 80 81 82 bb 88 18 5f bb 4b 66 40 3b 55 cc 2b 3b
       -0.0039827228 -0.0034041721 0.0029357846 0.002621432
000020 02 b9 1e bc 48 46 b2 3a a7 c7 1a ba 6d be 82 bb
       -0.009687664 0.0013601268 -0.00059043843 -0.0039899857
000030 23 c5 20 bc 5b 33 5b 3b 41 8c 70 bb 93 87 a9 bb
       -0.009812626 0.0033447358 -0.0036704692 -0.0051736324
000040 8d 4c db 3b 16 85 54 bb 9f 9e 22 3b 60 d5 a2 3b
       0.006692475 -0.0032427958 0.0024813784 0.004969284
000050 49 0f 9e bb ef 60 59 bb e5 c5 9f 3a 59 ba aa 3b
       -0.0048235995 -0.003316935 0.0012189714 0.0052102027
000060 a8 50 8e 3b d0 26 35 bb 15 77 52 bb 0d b8 b7 3b
       0.004343111 -0.0027641542 -0.0032114435 0.0056066574
000070 b6 c2 d7 bb 78 6f 20 bc 6c 4e f7 bb f4 61 7d bb
       -0.0065844906 -0.009792201 -0.0075471904 -0.003866312
000080 6e 1c df bb 31 e8 a7 bb 6b 3b ae ba 24 f1 58 3b
       -0.006808809 -0.005124115 -0.0013292854 0.0033102715
000090 6d 8b f1 bb 34 d6 da bb c7 46 84 3b d7 3a 0e b9
       -0.007371357 -0.006678367 0.0040367576 -0.00013564095
0000a0 2d 6c a1 3b 73 13 b6 bb 6e 10 46 3b b4 53 be bb
       0.0049262256 -0.0055565177 0.0030222195 -0.005808318
0000b0 0c 7f cf bb e1 6d e1 bb f5 4f 3c bb 9f 61 08 bb
       -0.006332284 -0.0068795537 -0.0028734182 -0.002081014
0000c0 48 b1 bf ba a5 c0 b2 bb 64 4d 9b 3b 54 07 0c 3b
       -0.0014624977 -0.005455094 0.0047394503 0.0021366673
0000d0 b0 7e 12 3b 54 5b 90 3a 42 be bb 3b 07 5a b0 bb
       0.0022353344 0.0011013546 0.0057294676 -0.005381826
0000e0 a6 58 f5 3b a4 b5 43 ba 18 30 75 bb 7c 23 20 3b
       0.0074873744 -0.0007465726 -0.00374127 0.0024435213
0000f0 02 90 f1 ba f7 50 b9 bb 25 fd 34 bb d6 08 7a bc
       -0.0018429758 -0.0056554037 -0.0027616706 -0.015260896
000100 f6 5c 5a ba cf c7 b9 3a b4 e6 a7 3b 8c fb 3c 3b
       -0.00083298923 0.0014173927 0.0051239375 0.0028836457
000110 cd 10 a0 3b 80 96 c7 bb c8 10 d2 3b 6d f5 ce 3a
       0.0048848153 -0.006090939 0.006410692 0.0015789695
000120 bf ea 15 39 07 26 a9 bb 23 b1 87 3b 59 db 23 3b
       0.00014297197 -0.005162004 0.0041409894 0.0025002568
000130 14 7e 1a bb 24 fd f9 3b fc 40 e5 bb 7e 05 a1 3a
       -0.0023573684 0.0076290537 -0.006996272 0.0012284962
000140 cb 8d a1 bb 8e d6 a0 3b ac 78 2c bb 50 db 43 3a
       -0.004930233 0.0049083894 -0.0026317043 0.000747134
000150 bd e7 d1 3b 2e b0 b7 3b 7e 1a a2 bb 4c bb c8 bb
       0.006405799 0.005605719 -0.004947006 -0.006125843
000160 fd 0f d1 b9 fc c0 7c ba de 2a 0a bb a9 4b 19 39
       -0.000398755 -0.0009641794 -0.002108268 0.00014619403
000170 8a 89 3f 3a 0b 72 94 3a 79 6d d2 3b 9f df d3 3a
       0.00073065667 0.0011325491 0.0064217416 0.0016164667
000180 2f 36 b3 ba 75 71 f5 3b a6 c5 85 ba 19 fb c0 3b
       -0.0013672764 0.007490332 -0.0010205999 0.005889308
000190 ef 8a 8a bb 32 5e 8f 3b 8a c9 16 bc fd 3f 93 ba
       -0.004227988 0.0043752426 -0.009203324 -0.001123428
0001a0 9d 11 0f bc d3 05 f5 bb a9 5e 70 ba 4d f6 e6 3b
       -0.008732227 -0.007477501 -0.0009169379 0.0070484043
0001b0 41 26 e6 3b f2 a7 93 bb b2 9a 0d bc 1f 5d bf 39
       0.007023603 -0.0045061046 -0.008642839 0.0003649974
0001c0 78 68 36 b9 5e 96 94 3b 3f 75 c9 bb 26 2e 57 3a
       -0.0001739579 0.0045345267 -0.00614801 0.0008208476
0001d0 b2 87 36 ba 40 2e 0b bc 87 84 ec ba 59 2c ac 3a
       -0.0006962969 -0.008494914 -0.0018044867 0.0013135775
0001e0 42 2e 01 bb b9 f0 fd bb 33 f0 2b 3b e3 57 db bb
       -0.001971141 -0.0077496436 0.00262357 -0.0066938265
0001f0 e0 da e2 3a c9 8f b1 3b 14 bd 90 ba 18 99 9b 3a
       0.0017307661 0.005418752 -0.0011042678 0.0011871187
000200 5c 2e d9 bb 30 13 f0 bb 20 60 a4 3b 84 b0 00 3a
       -0.006627841 -0.007326506 0.005016342 0.00049091154
000210 fa 52 ab bb 78 be a0 3b 15 14 62 3a e5 db 84 3b
       -0.0052283974 0.004905518 0.0008624208 0.004054534
000220 f8 03 c0 3b 53 b7 27 3b d8 9d 79 3b c9 0e ee bb
       0.005859848 0.0025591447 0.0038088467 -0.007264946
000230 30 54 12 3b 5a b9 84 bb 8a 6c 21 3b d4 b7 19 3b
       0.0022328012 -0.004050416 0.0024631345 0.0023455517
000240 ad be c8 3b 5c 4c 85 bb a4 6f 1f bb 06 b4 2f 3b
       0.006126246 -0.0040679406 -0.0024328018 0.0026810183
000250 34 56 19 bc c5 b4 a7 3b 1b 53 e9 39 52 71 e2 ba
       -0.009358931 0.005117985 0.00044503142 -0.0017276204
000260 fb 0f b4 bb ec 2c c1 3b e2 68 95 bb 69 97 8c ba
       -0.005495069 0.0058952477 -0.004559622 -0.0010726276
000270 03 f1 80 3b 2b 15 3c b8 d5 45 ff 3a af 60 67 bb
       0.003934981 -4.4842407e-05 0.0019475768 -0.003530543
000280 e8 4a 2b 3c 10 c8 c0 bb 2c 41 b6 3b 13 5a 80 3b
       0.010454871 -0.0058832243 0.0055619683 0.0039169877
000290 c2 15 03 3b df 10 d2 bb f7 d4 d8 3a 29 c0 e8 bb
       0.0020001982 -0.0064107026 0.0016542961 -0.0071029854
0002a0 aa 40 41 bb 03 f7 10 bc 15 a4 40 3b c6 a2 d7 ba
       -0.0029488006 -0.008847955 0.0029394676 -0.0016451709
0002b0 a6 8a 28 3b 74 34 f7 3b a2 23 09 3b ff f8 bf bb
       0.0025717407 0.0075440947 0.002092578 -0.00585854
0002c0 33 fe 03 3c 59 8f 8e 3b a2 b7 c2 3a db 9e d6 3a
       0.008056211 0.0043505845 0.0014855752 0.0016374247
0002d0 86 97 4d bb 80 1e 13 3b e7 d6 3d 3b 57 3d 83 b8
       -0.0031370833 0.00224486 0.0028967203 -6.257992e-05
0002e0 13 da d1 bb 72 65 31 3b a4 79 c3 bb 51 d5 6a 3b
       -0.0064041703 0.0027068523 -0.0059654284 0.0035832713
0002f0 49 ed a4 bb b1 ae ff bb 90 7b 6a 3b f5 5a dd bb
       -0.0050331694 -0.0078028073 0.0035779215 -0.0067552277
000300 09 63 b1 bb c6 1e bf 3b 87 7b 65 bb b7 b0 21 bb
       -0.0054134172 0.005832526 -0.0035016255 -0.002467198
000310 e8 db d9 3b a3 bd 69 ba ed 2e 97 39 cd b0 13 3c
       0.0066485293 -0.00089165027 0.00028835927 0.009014321
000320 60 69 e7 bb 50 83 c4 bb 5e 53 c4 39 43 dd 43 bb
       -0.007062122 -0.005997099 0.00037446147 -0.002988652
000330 42 10 ce 3b c2 8f c5 bb df 98 99 3b 7f 80 04 bc
       0.006288559 -0.0060291 0.004687413 -0.0080872765
000340 4e cd 12 3b 96 ce d6 bb 18 7c a6 bb fa c7 b9 b9
       0.0022400203 -0.0065553887 -0.005080711 -0.00035434944
000350 c2 b1 13 bc fa 67 e2 ba 88 c4 b7 bb 18 20 e2 3a
       -0.009014549 -0.0017273419 -0.005608145 0.0017251996
000360 b6 1b 08 3c 96 6d 5f bb 34 7c a5 3b 90 09 21 3c
       0.008307388 -0.0034092418 0.0050502066 0.00982894
000370 ee ab e3 3a 8c 5e b7 3b e7 c4 8f 3b ff e5 bb bb
       0.0017369965 0.0055959877 0.0043874863 -0.005734205
000380 0a b0 0f 3b 31 25 c4 3b 5b 76 a6 39 70 98 ed ba
       0.0021924996 0.005985879 0.0003175017 -0.0018127095
000390 a4 09 2d 3c a7 f4 27 3a 72 70 69 3b f9 a1 c3 bb
       0.010561381 0.00064070005 0.003562 -0.0059702364
0003a0 b7 aa 7f 3b 76 ae c9 3b 79 1b 42 bb eb 40 cb 3a
       0.0039011666 0.0061548306 -0.0029618426 0.0015507018
0003b0 1c 7e 9f bb b3 39 1a 3b fa 3a c6 3a 3b 83 de 3a
       -0.0048673283 0.0023532927 0.0015123778 0.0016976366
0003c0 8d 75 a4 bb b5 06 5e 3b 14 a0 bc 39 96 9c 42 3a
       -0.005018896 0.003387851 0.00035977422 0.0007423846
0003d0 c8 c6 a6 ba 89 16 82 bb 4c 63 06 3b 7e ab 86 3b
       -0.0012724036 -0.0039699716 0.0020505963 0.004109799
0003e0 1e ac 61 3b a5 57 06 3c 48 bf 7c 3b 16 7f c2 b8
       0.0034434865 0.008199607 0.003856616 -9.2743125e-05
0003f0 7c 2a fa 39 df 63 ee 3a 56 cd 70 3b 93 62 39 3b
       0.0004771537 0.0018187723 0.0036743484 0.0028287515
