saved_models/cnn-fft/2024-06-04_23-12-37.pt (torch, 548512 bytes, 9 tensors)

module.0.weight f4 [32, 3, 7, 7]
000000 a6 a1 d1 bb a2 b9 2e 3c dd 4d 57 3d b4 f6 62 bd
       -0.006397444 0.0106643755 0.05256449 -0.055411056
000010 19 d4 fb bb 7b 64 1b bd 6a d9 7e bc 07 ce 11 3d
       -0.007685196 -0.037937623 -0.015554765 0.035596874
000020 79 c0 cf bc 27 12 0f be 35 97 8e bc e9 c6 9e bd
       -0.025360333 -0.13971768 -0.017406086 -0.07752783
000030 e9 9f ac 3d ce 51 4d 3d e7 66 10 3d 79 d7 0c 3d
       0.08428938 0.050126843 0.035254385 0.03438518
000040 2a 5c 86 3d b4 3a 8f bd 8d 95 ab 3d 52 e5 c5 bd
       0.06560548 -0.069936186 0.08378134 -0.0966288
000050 65 b2 b9 bc 6e 0b 1b bd f7 bb ea 3c c7 64 9a 3c
       -0.022668073 -0.037852697 0.028654082 0.018846883
000060 2b 6b 6a 3c 24 a1 1f bd 1f 57 50 bd 5f 0b 07 3c
       0.014307777 -0.038972035 -0.050864335 0.008242457
000070 f5 6e 82 bc d8 90 c2 bc 19 c9 80 bd 07 3e 6c bd
       -0.015922049 -0.023750708 -0.06288356 -0.05767634
000080 3b 41 91 3d db b1 8b 3b d2 0e 51 3d 46 02 d9 bd
       0.0709252 0.0042631454 0.051039524 -0.10596137
000090 4a 90 6c bc 53 c1 20 bd 45 ee bf bd 30 da 21 be
       -0.014438698 -0.03924687 -0.09371618 -0.15805888
0000a0 0f cf e7 bc 17 bc 09 bc 11 a0 5e 3c 19 bc a1 bd
       -0.028296975 -0.0084066605 0.0135879675 -0.07897205
0000b0 2a 52 82 ba 3b ab 99 3d c1 50 e4 bc 1a 79 15 bd
       -0.00099427 0.07503363 -0.027870538 -0.036492445
0000c0 29 f1 c2 3d 12 b7 47 3d 84 88 3c bd a9 6f 1b bc
       0.09518654 0.048758574 -0.04602863 -0.009487071
0000d0 89 35 bd bd 14 d6 89 bd 0b 6a 3f bd 1e a7 23 bd
       -0.09238727 -0.06730285 -0.04673199 -0.039954297
0000e0 b7 d8 78 bd a9 d5 a2 3d 95 a5 9e bd ec 88 4a bc
       -0.06075355 0.07950909 -0.07746426 -0.012361746
0000f0 e5 93 46 bd 8b 47 9e 3d 92 8d 12 bd c1 a7 90 3d
       -0.048480887 0.077284895 -0.035779543 0.070632465
000100 e1 c1 f5 bc dc 8d 34 3d 35 35 1a bd a0 a9 d1 bc
       -0.029999675 0.0440806 -0.0376484 -0.025593579
000110 a5 d8 d5 3c 72 95 97 bd ec bb 24 3c f4 cc bf bc
       0.02610428 -0.07401551 0.01005457 -0.023413159
000120 7b 1e a7 bb 9b 8f c0 3d ba 80 c7 3d 8b d8 b9 ba
       -0.005100069 0.094023906 0.097413495 -0.0014178915
000130 3e e8 a1 bd 65 6b e9 bc a9 21 c0 3d 43 d7 9e 3d
       -0.07905625 -0.028493593 0.0938142 0.07755902
000140 00 1b 74 bc 92 6a 1e bd c2 a5 57 3d a9 ca b3 3d
       -0.014899015 -0.038675852 0.052648313 0.08778889
000150 cc 4c 9c 3c 27 93 41 bd 33 1d 99 3c d1 f1 fe bc
       0.019079588 -0.047259476 0.018690681 -0.031121166
000160 09 13 a2 bd 52 0c ae 3d ed ba 1b 3d 82 78 47 bd
       -0.07913787 0.08498444 0.038020063 -0.04869891
000170 fe af 6e bd 7a 9d b3 3d ee e6 b7 3d 3d c1 bb 3d
       -0.058273308 0.08770271 0.08979593 0.09167717
000180 d1 e5 dd bc c4 2a 95 3d 3f 08 fc ba 50 6f 83 bb
       -0.027087124 0.072835475 -0.0019228532 -0.004011072
000190 81 28 ab 3d 91 39 3a bd 6c dd 1e bd e0 1c 36 3b
       0.08357335 -0.045465056 -0.038785383 0.0027788207
0001a0 48 1e db bc 22 75 8e bd 8a 2d 0a bd 27 b0 34 bd
       -0.026747838 -0.06955935 -0.033734836 -0.044113304
0001b0 a5 25 1d bc 57 71 71 bc 05 20 45 3d 74 f5 a7 bd
       -0.009591495 -0.014736495 0.04812624 -0.08201113
0001c0 1d 0e 2e bd 11 e1 86 3d a9 f5 25 bd 49 ba ae 3c
       -0.04249393 0.06585897 -0.040517483 0.021329062
0001d0 32 a5 68 3c 0d 50 0d 3d 59 5e 81 3c 1d b5 ed bc
       0.014199542 0.03450017 0.015792059 -0.029017026
0001e0 ee f5 81 3c d4 bc 5c 39 90 2e aa bd b6 d2 ed 3d
       0.015864339 0.00021051179 -0.08309662 0.116124555
0001f0 37 c9 28 3d 93 3d b4 3d bd dc 8f 3c 70 74 a1 3c
       0.04120752 0.08800807 0.01756131 0.019708842
000200 f1 a4 43 bd 59 89 d8 3a c5 b2 a8 3d a8 82 b7 3d
       -0.047764722 0.0016520425 0.082372226 0.089604676
000210 0a 49 4a bd 05 2e 2a bd 43 da 9b bd 76 37 41 3d
       -0.04938606 -0.041547794 -0.076099895 0.047172032
000220 2d 07 ab 3c 0f 24 0a 3d d9 9a 0c bd 6e b1 f4 3b
       0.020877445 0.033725794 -0.03432736 0.0074674403
000230 e0 d9 fb bb c1 81 38 bc 02 56 8c b8 25 f3 ad 3d
       -0.007685885 -0.0112614045 -6.6917404e-05 0.08493642
000240 e5 33 ea bb 72 47 21 3c 4a c4 32 ba 6f 65 1b 3d
       -0.0071472996 0.009843694 -0.00068194105 0.03793853
000250 fe 52 67 3c a6 58 b3 3b ee f1 9f bc ef 26 b8 3d
       0.014118908 0.005473214 -0.01952454 0.08991801
000260 ae 37 51 bd 55 6d 58 3d d7 ed e8 3c dd b8 6a 3d
       -0.05107849 0.052838642 0.028433723 0.057305206
000270 f5 33 91 3d 93 f1 85 3c 6f 6f a7 3c 65 72 65 bc
       0.07089988 0.016350543 0.020438878 -0.014004325
000280 f3 53 62 3d 22 63 26 3d c3 78 b0 3d d5 5c c2 3d
       0.05525584 0.040621884 0.086167835 0.094903626
000290 ab 2d 79 3d 0a 25 c0 3d 69 fe 40 3d e9 9a 80 bd
       0.060834568 0.09382065 0.047117624 -0.06279547
0002a0 9a 57 8d 3c ef 43 81 ba ff 46 14 bd 40 60 86 3d
       0.017253686 -0.0009862165 -0.03620052 0.06561327
0002b0 74 fb da bc 47 23 5d 3d ea d3 3a bd 29 38 c2 bd
       -0.02673123 0.05398872 -0.045612253 -0.09483368
0002c0 0a d9 a6 bd 16 57 b8 bc 43 f1 98 3c 7e c0 07 3d
       -0.08146866 -0.022502463 0.01866973 0.03314256
0002d0 53 ab 2b bd 2a 0e 01 be 8d 7b f7 bd 3c a6 13 3d
       -0.041911434 -0.1260306 -0.12084112 0.036047205
0002e0 9a b3 6f 3d 78 84 3f bd 87 e4 9d bc a9 1b 3e bd
       0.05852089 -0.04675719 -0.01927401 -0.046413098
0002f0 24 ad 1d bd 94 2b ae bd 61 68 d3 bd 2d 83 92 3d
       -0.038495198 -0.085044056 -0.10322643 0.07153926
000300 4a 93 af 3c f2 7f a7 bd 20 89 5c bb 64 0e 2a 3c
       0.021432538 -0.081787005 -0.0033651069 0.010379408
000310 f9 3e 02 3d eb 01 80 bd e2 55 3c bd de 17 8e bd
       0.031798337 -0.06250366 -0.04598034 -0.06938146
000320 7a 10 97 3d 5a 20 f9 3b 68 68 95 3c e2 25 22 3d
       0.073761895 0.0076027336 0.018238261 0.03958691
000330 38 dd 26 3c 13 0a 70 ba 7c 48 0f 3d 21 c2 75 bd
       0.010184579 -0.00091567746 0.034981236 -0.05999959
000340 b4 27 4e bd cc ee 43 bc e9 8d b1 3c a9 52 ca bb
       -0.050330833 -0.011958789 0.021674113 -0.0061744046
000350 e3 9a a6 bd dd 86 1a bd 4b 5b a1 3d 1a 26 de 3c
       -0.08135011 -0.037726272 0.07878741 0.027117778
000360 9b b7 37 3d b4 17 2d bd 1c 7b a5 bd 59 61 84 3d
       0.044852834 -0.042258933 -0.08080122 0.0646388
000370 eb 95 64 bc 67 0b 84 3d 49 41 1d 3d 09 d8 8f 3c
       -0.013951759 0.06447487 0.03839234 0.017559068
000380 00 96 92 bb 70 35 62 3d 6f 25 58 3d 11 0b d2 3c
       -0.004473448 0.055226743 0.052770074 0.025640042
000390 ac 11 cc 3b 5d f4 f6 bb 2e 56 63 3b 72 80 5c 3c
       0.0062276926 -0.0075364546 0.0034688818 0.013458358
0003a0 e8 b6 85 3d 60 b9 b8 3d a7 1e e9 3d 09 8e 2d bd
       0.06529027 0.090197325 0.113827996 -0.042371783
0003b0 0a 46 e3 3c ca 57 8c 3d 0a 52 bf bd 4a b2 a0 3b
       0.027743358 0.06852682 -0.093418196 0.004904066
0003c0 a6 ca 81 3d aa 2f 6a 3d bd 6e a0 bd cb 64 6f bd
       0.0633748 0.057174362 -0.07833622 -0.058445733
0003d0 26 90 61 3d 53 7f 12 3d b1 9b b8 3c af 26 20 bc
       0.05506911 0.035765957 0.022535177 -0.009774848
0003e0 b5 2b d3 bd e7 5d 86 bd 47 a6 ef 3c 3e ca 60 39
       -0.10311071 -0.06560879 0.029254092 0.00021437646
0003f0 68 eb ee bc 9a a5 18 bd b4 81 8a bd 93 ce 37 3c
       -0.029164985 -0.037267305 -0.0676302 0.011218685

module.0.bias f4 [32]
000000 98 56 18 bd e7 73 8d 3d 06 f2 32 3d 3d bb 1a bd
       -0.037191957 0.06906872 0.043687843 -0.03777622
000010 e1 e9 59 3d b8 ec 3b bb b8 b5 b9 3b c0 77 8c 3d
       0.05320156 -0.002867503 0.0056674145 0.06858778
000020 5f 60 d8 3b 1e 7f c4 3c 97 80 f6 bc 73 2b 95 3d
       0.006603285 0.023986395 -0.030090613 0.07283678
000030 4b f8 8a 3d 94 27 3c bd 5d 4e 73 3d 77 83 02 bd
       0.067856394 -0.045936182 0.059400905 -0.031863656
000040 da 88 eb 3c 1c 03 95 3d 65 3f 34 3d 23 7b 3b bd
       0.02875178 0.07275984 0.04400577 -0.04577173
000050 da a1 e4 3c 24 a2 4e bc ed 16 fe 3c f4 34 08 bd
       0.027909208 -0.0126118995 0.031016791 -0.033253625
000060 4b da b0 3d 3d f5 6b 3c f1 6c 42 3d 6b d1 4f 3d
       0.08635386 0.014401731 0.047467176 0.050736826
000070 06 84 3e bd 6a 06 d5 3c eb 72 91 bc cf f8 53 3d
       -0.046512626 0.026004035 -0.017754992 0.051750954

module.3.weight f4 [64, 32, 3, 3]
000000 2b ba 3c 3c bd ff 02 3d c3 a8 1d bd b6 cd 5b bd
       0.011518995 0.031982172 -0.03849102 -0.053662978
000010 cb 55 9d bd 57 47 e4 b9 c3 92 46 3d 14 1d 7c 3d
       -0.07682379 -0.000435407 0.048479807 0.06155117
000020 72 ee fd bc d6 c1 e3 bc dd 5b 7d 3c c6 cf b1 bc
       -0.030997489 -0.02780239 0.015463796 -0.02170552
000030 f9 0c 1e bd 4f 47 1f 3d c9 a8 06 3d 4c 32 81 3c
       -0.03858659 0.038886365 0.03287581 0.015771054
000040 a9 88 51 bd 87 96 c9 bc 9b 6b cd 3c d8 94 b7 3b
       -0.05115572 -0.02460791 0.025075724 0.0056024604
000050 3e b4 86 3a f2 00 8e bb 18 b7 69 3d 1a c7 55 bd
       0.0010277105 -0.004333609 0.057059377 -0.05219183
000060 25 2e d6 3b bb 9c 20 3d ac 60 47 3d 14 c3 91 3b
       0.0065362626 0.03921197 0.048676178 0.004448304
000070 d7 c0 4f 3d 1a 3d 45 bd 0c f8 de 3c 0b 6d 6b bc
       0.050721016 -0.048153974 0.027217887 -0.01436926
000080 4e 33 36 3c eb cc 9d 3a 92 1f 8a b9 b8 65 a4 bd
       0.01112063 0.001203922 -0.00026344933 -0.08027214
000090 20 fb 6f bd f5 a3 73 3d d1 7f 57 bc e9 57 43 3c
       -0.0585891 0.059482533 -0.013153032 0.011922815
0000a0 19 2e 49 bd 3d c7 9a bc f9 49 3a 3d 14 1c bf 3b
       -0.049116228 -0.018893832 0.045480702 0.0058322046
0000b0 5a da ca 39 ea ec 16 bd e5 f6 46 bd d5 e3 b0 3c
       0.00038691127 -0.036847033 -0.0485753 0.021593014
0000c0 02 54 81 3c 47 f4 4c bc 0f 9c 6c 3c f3 dc 95 3d
       0.015787128 -0.012509412 0.014441504 0.07317533
0000d0 32 7b 8f bc 31 82 1f bc 24 39 12 3d e7 46 d2 bc
       -0.017514799 -0.00973563 0.035699025 -0.025668574
0000e0 51 b3 7b 3d b0 c2 aa bc 33 ae 10 bc 5f cc 15 3d
       0.061450306 -0.020844787 -0.008830595 0.036571857
0000f0 1c 08 83 3d 1d 40 d8 bc 9b 0d 4a bd 63 f2 3f bd
       0.06398031 -0.02639776 -0.04932938 -0.046862017
000100 3f 21 d4 3c 51 76 8f bd ce 8f 56 3d ff 4c a7 bc
       0.02589476 -0.07004989 0.052383237 -0.020422457
000110 cd 11 0f 3d b6 3d 19 bd 78 33 61 3d 97 bc e7 bc
       0.034929086 -0.037412368 0.054980725 -0.028288169
000120 37 98 8a 3c 48 d4 3f bc 01 50 c1 b8 43 a7 5f 3d
       0.016918285 -0.011708327 -9.217859e-05 0.054602873
000130 6f 56 08 bc f1 70 da 3b 27 22 25 3d 76 a9 88 3d
       -0.008321389 0.0066662957 0.040315773 0.06672947
000140 94 f8 fc 3c 12 c4 36 bd 80 43 d1 3c 6e eb 68 3c
       0.03088025 -0.04462058 0.025544882 0.014216287
000150 ae 48 f8 3c 04 9f 06 3b f5 b8 5d bc 68 fe 4e bc
       0.030308094 0.0020541558 -0.013532867 -0.012633897
000160 fc b9 8e bd 22 4c fb 3c 4a 75 1f bd 84 4c f1 bc
       -0.069690675 0.030675951 -0.038930215 -0.02945543
000170 41 b5 0a bd 8b 15 83 bc 06 17 9b bc b8 16 14 3d
       -0.033864263 -0.016001483 -0.018931877 0.03615448
000180 4d 78 18 3c 28 3b 9c 3b 89 f4 22 bd 51 df 56 3d
       0.009306026 0.004767794 -0.03978399 0.052459065
000190 ff 34 c0 3b b7 f3 f7 3c 71 01 d9 3c 4c f9 04 bd
       0.0058656926 0.03026758 0.026489945 -0.03246431
0001a0 b7 17 c5 bc f0 ba 90 3d ec e6 1b 3d 03 7c 42 bc
       -0.02405916 0.070669055 0.03806202 -0.011870387
0001b0 c6 a1 e3 bb b7 76 05 3d d5 c8 69 3d b7 7b 95 bb
       -0.006946775 0.03258392 0.057076294 -0.004561867
0001c0 7f 24 f9 3c b3 45 4c bd c7 59 c7 bc f0 39 80 3c
       0.03041291 -0.049871158 -0.024334801 0.015652627
0001d0 c1 a9 85 bd b1 c3 44 bc 59 7a ea b9 80 ae a6 3c
       -0.065265186 -0.012009547 -0.00044723114 0.02034688
0001e0 8c e2 b1 3c 81 30 2a bd 18 31 15 bd 70 f0 5f 3d
       0.021714471 -0.041550163 -0.036423773 0.05467266
0001f0 b9 70 12 3b b4 5f 50 3d 44 a1 4c 3c 37 be cc bc
       0.002234502 0.05087252 0.012489621 -0.024993045
000200 8a 30 86 bd a1 65 a7 3a f8 c6 ab bd 17 7f 8f bc
       -0.06552227 0.0012771377 -0.0838756 -0.017516656
000210 0c ab 29 3d 06 22 1d 3d a1 03 19 3d 68 c9 6f 3d
       0.04142289 0.038362525 0.037356976 0.058541685
000220 1f c9 79 bb 98 c1 c1 3c ac 4c 3e 3d 0c 81 a7 bd
       -0.0038114262 0.023651883 0.04645984 -0.081789106
000230 16 de 35 bd e7 15 80 3d 2f f2 00 3c 07 41 0b bd
       -0.04440125 0.062541775 0.007870241 -0.03399756
000240 2a e8 95 bc eb 75 84 bb b1 7b 3e 3d 23 bb 8b 3c
       -0.018299181 -0.004042377 0.04650468 0.017057007
000250 50 03 71 3d bf 61 02 bd 47 4e 65 3d c4 c2 40 bd
       0.05884105 -0.0318315 0.055982854 -0.047060743
000260 2e 36 49 bd 6b 18 04 3b ac 11 a7 bc df 37 0b bd
       -0.049123935 0.0020156156 -0.020394169 -0.03398883
000270 41 94 75 3d d1 86 55 3d 8f 9c 46 3d 98 08 91 3a
       0.05995584 0.052130524 0.04848915 0.0011065183
000280 48 0f 8c bd cc 43 2e 3c cd ee 92 bd 73 f3 a8 bc
       -0.06838852 0.010636281 -0.07174454 -0.020623898
000290 48 36 be bc 91 55 d2 3c f0 32 1c bd dc ad 9f 3d
       -0.023219243 0.025675567 -0.038134515 0.07796833
0002a0 59 fe 31 bd 4c 79 88 3d a2 70 25 bd b5 ed 39 3d
       -0.043455455 0.066637605 -0.04039062 0.04539271
0002b0 64 2f e3 bc a2 e9 ac 3c 7b f7 44 3b 09 ad 44 bd
       -0.027732559 0.021107499 0.0030054736 -0.04801658
0002c0 2a 12 cc bc e4 36 8c bb 7d f0 89 3c 7c d0 51 bb
       -0.024911005 -0.0042790044 0.016838307 -0.0032015136
0002d0 5a 7f 91 bc e8 66 d7 bc bb ff fd bc 83 3e 58 bd
       -0.017760921 -0.026294187 -0.03100573 -0.05279399
0002e0 84 30 91 3c b9 54 45 3d 4a c8 c4 bc be 36 25 bd
       0.01772333 0.0481765 -0.024021287 -0.04033541
0002f0 39 5a 07 3c 8e e6 31 bd 40 56 8d bd 54 0e ac 3c
       0.008261257 -0.043432765 -0.069012165 0.021002926
000300 69 43 8c bd 36 1c 9e bd cf d1 b2 3d bf 5f 06 bd
       -0.06848795 -0.077202246 0.08731424 -0.032806154
000310 5b 90 6b bd 11 d2 35 3d 7d 2e ff 3c 8e fb f4 b9
       -0.057510715 0.044389788 0.031150097 -0.0004672673
000320 e1 e7 8c bc 5d 9e 84 3c 53 4b 3b 3c 6d df 2c 3b
       -0.017200412 0.016188795 0.011431533 0.002637829
000330 89 fe 39 3d c4 13 6e 3d 54 0c 1f bc f3 19 58 3d
       0.04540876 0.05812432 -0.009707529 0.052759122
000340 3b 22 3d 3d e9 69 99 bc 5e 60 83 bd 42 8c 8a 3d
       0.046175223 -0.01872726 -0.06414865 0.06765033
000350 10 65 b3 bc 3a 30 52 bd f7 ae 9c 3a 56 0b f5 3c
       -0.021898776 -0.051315524 0.0011953999 0.029912632
000360 46 5e 08 bd 20 f1 0c 3c 73 f9 ae bd bc 7a 00 bd
       -0.03329303 0.008602411 -0.085436724 -0.03136705
000370 ae 9d 58 bc 03 f7 40 bd a8 b5 80 3d 5b 96 1c 3d
       -0.0132211875 -0.04711057 0.06284648 0.038229328
000380 92 20 50 bd 48 1d 57 3d 54 4f 15 bd c6 e9 11 bd
       -0.05081231 0.05251816 -0.036452606 -0.035623334
000390 2b a8 91 bb 54 cf e8 bc 0e 73 e7 3c 97 7b 33 bd
       -0.004445096 -0.028419174 0.028253105 -0.043819036
0003a0 ff 77 0f 3d b2 49 1e 3d 3f af 14 3c 5d 8e 89 3c
       0.035026547 0.0386445 0.009074985 0.016791517
0003b0 61 36 f7 bc b3 71 c8 3c 4a d9 b7 bc 2b fe 41 3d
       -0.030177297 0.024468279 -0.022442479 0.047361534
0003c0 7e 88 48 bc 5e 7c c8 3c 42 89 e8 bc 5a 44 80 bd
       -0.0122395735 0.024473365 -0.028385762 -0.06263037
0003d0 ba b1 e9 bc 10 70 09 3b a1 b4 f5 3c 62 8c 5c 3c
       -0.02852713 0.0020971335 0.029993357 0.013461204
0003e0 7a 70 46 bd a3 93 d0 bc 22 8f 81 bd e2 dd 89 3d
       -0.04844711 -0.025461024 -0.063261285 0.06731774
0003f0 b2 d2 9b bc 2a 5e 80 bd 9e 48 06 bd cf ad 01 bd
       -0.019021366 -0.0626796 -0.032784097 -0.031659897

module.3.bias f4 [64]
000000 15 73 87 bc bc e4 6c 3c 51 d4 d8 3c 19 24 76 3c
       -0.016534368 0.014458831 0.026468428 0.015023255
000010 19 06 de bc 21 37 e1 3c e3 1b 06 3d 8f d5 a0 bc
       -0.027102517 0.027492108 0.03274144 -0.019633083
000020 82 ae 29 bc 0e 0e e0 bc 27 75 0a 3d d1 ae 74 bc
       -0.010356547 -0.027350452 0.03380313 -0.014934258
000030 c3 81 29 3d b0 f6 db 3c 1a 64 ca bc 01 f3 fc bc
       0.041383516 0.026851028 -0.024705935 -0.030877592
000040 48 98 4f 3d 32 95 b7 bb 1d 0e 1f bc 68 22 fa bc
       0.050682336 -0.0056025023 -0.009707955 -0.030533984
000050 99 85 95 3c 98 82 59 bc 8c 1c 21 3d 5f d5 a7 3c
       0.01825218 -0.013275765 0.039333865 0.020487485
000060 3d 7d d0 bc ed 67 d7 bb c5 63 45 3c d8 6e f8 3b
       -0.025450343 -0.006573668 0.012047713 0.007581573
000070 17 4d e5 3c b1 dc 51 3d 1a 13 76 bc 94 bd 53 bc
       0.02799086 0.05123586 -0.015019203 -0.012923617
000080 e6 a2 5b 3d e9 9d f1 bc 39 eb 0c 3d 1f 9e 26 3c
       0.05362215 -0.029494243 0.034404013 0.010169535
000090 46 6a bd 3c 34 a2 69 ba b3 2a 54 3a a0 e9 5b 3c
       0.023121964 -0.0008912415 0.0008093521 0.0134224
0000a0 3b b0 11 bd 30 1c 6c bc 6c 33 23 3d ee 32 32 bc
       -0.035568457 -0.014411017 0.03984396 -0.0108764
0000b0 d1 20 6b bc f5 24 b6 3c ce df d2 3c 08 cf 47 bd
       -0.014351086 0.02223442 0.025741484 -0.048781425
0000c0 f8 e9 be bc 94 f5 ca bc ce a2 cb bc bb df 1b 3d
       -0.023304924 -0.024775304 -0.024857905 0.038055163
0000d0 1f c3 4b bd 9d cb 17 bc e0 8b 23 bc 91 98 84 bd
       -0.04974663 -0.009264854 -0.009982079 -0.06474412
0000e0 8b 46 ea 3b e3 c7 6b bd 10 1f c7 bc 25 ea 31 3d
       0.0071495227 -0.057563674 -0.024306804 0.04343619
0000f0 14 b6 3a bb c4 76 a6 3c 5b 23 59 3d 44 9d e0 bb
       -0.0028489875 0.020320304 0.053012233 -0.006854685

module.7.weight f4 [64, 64, 3, 3]
000000 5b 81 df 3c dc a9 ee bc 72 45 80 3c 0c 8b 8f 3d
       0.027283361 -0.02913373 0.015658114 0.07008943
000010 9e 5e c3 3c d3 96 c7 3b 8b 74 13 bc 58 d0 84 bc
       0.023848828 0.0060909777 -0.008999954 -0.016212627
000020 bd 2e 2d 3d 8c f7 86 bb aa 37 c7 3c e6 fb 65 bc
       0.0422809 -0.0041188654 0.024318535 -0.014037108
000030 2d f0 2c 3c 06 0b 92 3b e9 d3 30 3d 86 8f 24 3c
       0.010555309 0.0044568805 0.043170843 0.010043984
000040 72 0a 17 3d 1f f9 13 3c 2e d6 21 3d 6e b4 3a 3b
       0.036875196 0.009031563 0.0395109 0.0028488892
000050 6e 4c f3 3a 24 c9 45 3d 3c fe 74 3c a8 3b d0 3a
       0.0018562207 0.048287526 0.014953192 0.001588692
000060 df af c1 bc 0d bd d0 bb d3 01 e9 3c 08 75 77 3c
       -0.023643432 -0.006370193 0.028443253 0.015103586
000070 ff 43 4e bd ac 99 9f bc ee 04 e1 3c c6 43 84 3c
       -0.050357815 -0.019482456 0.027468171 0.016145598
000080 a4 37 4b bc b9 89 3d bd e6 47 66 3d 30 77 cf 3c
       -0.0124034025 -0.04627392 0.05622091 0.025325388
000090 79 ec 06 bd 29 51 ef 3b 37 cf 1d bc 6a ae 7c 3c
       -0.03294036 0.007303376 -0.009631923 0.015422443
0000a0 91 86 00 3d b5 67 77 3d 31 05 3a bd 75 6c bc bc
       0.031378333 0.060401637 -0.045415107 -0.023000935
0000b0 32 d4 f6 3c f8 8c b1 bc 3a 28 35 3d 16 dc 3f bd
       0.03013048 -0.021673664 0.044227816 -0.04684075
0000c0 20 ce 18 bd db 8a 53 bd 77 1d 6d 3c 1c 04 67 3d
       -0.03730595 -0.051646095 0.014472357 0.056400403
0000d0 99 26 da 3c 3c 3d 80 3c 75 d4 86 bc 9a 85 4c bb
       0.026629733 0.015654199 -0.01645873 -0.0031207562
0000e0 34 9c d9 3c b6 2e 81 3d 8a cc d7 3c 96 b4 7b 3d
       0.026563741 0.063077375 0.026342649 0.061451517
0000f0 9e e2 80 bd 45 32 f1 3c 0a 8a 59 bc f0 de a7 3c
       -0.06293224 0.029442916 -0.01327754 0.020492047
000100 6d e4 8c bc ae e2 11 bd e5 3a 13 bd ca f1 37 3c
       -0.017198766 -0.03561657 -0.035944838 0.011227081
000110 63 da af bc a7 cf 96 bd 7e 2c 06 bc 33 1c 87 3d
       -0.02146644 -0.07363825 -0.008189319 0.065971754
000120 aa f2 16 bd 39 a2 aa 3c c1 ec c2 bc e7 74 56 3b
       -0.036852516 0.020829307 -0.023794534 0.0032723488
000130 db f6 ab 3c cc 01 06 bd 17 91 47 bc 18 58 4b bd
       0.020991733 -0.032716557 -0.012180588 -0.04964456
000140 ab 88 39 3d 84 f6 06 3d 54 57 c0 bc 96 d0 c6 bc
       0.045296352 0.03294994 -0.023479141 -0.024269383
000150 83 4b 15 3c 84 06 9b 3c 27 6d f2 3c ec ae 91 3c
       0.009112242 0.018924005 0.029593064 0.017783605
000160 d5 84 22 3c 73 bf e0 3b 5d 91 d0 3c 7e 9a 3e 3c
       0.009919365 0.00685876 0.02545994 0.0116335135
000170 84 a3 29 bc 9b 08 c0 3c d4 7a 07 bd b5 05 2f 3d
       -0.010353927 0.023441603 -0.033076122 0.042730052
000180 b9 1f 1f 3d 9c 43 d7 3c 19 e7 ac 3b 26 ef 26 3d
       0.038848612 0.026277356 0.0052765724 0.040755413
000190 ae 36 9a bc 03 3e 17 bd 04 65 a4 3b 5b 29 50 3b
       -0.018824901 -0.036924373 0.005016925 0.003176293
0001a0 2b a9 33 bb c8 03 04 3c c0 f2 fb 3c 30 35 75 3c
       -0.0027414064 0.008057542 0.0307554 0.014966294
0001b0 f2 9e f6 3c e9 3b ba bb cd c2 f2 bc d6 ec 87 ba
       0.030105088 -0.0056834114 -0.029633904 -0.0010370265
0001c0 c2 dd 26 3c 93 4b cf bc b1 41 27 b9 ca 0b 2b 3d
       0.010184707 -0.025304591 -0.00015950833 0.04175929
0001d0 47 14 5d 3d 3d 7f a0 3c 5b 23 06 bd 4b 6d 0e 3d
       0.053974416 0.019591922 -0.03274856 0.0347722
0001e0 8f 5e 8b bc 09 98 05 3d c8 21 53 3c a8 13 c3 3c
       -0.017012862 0.032615695 0.012886472 0.023813084
0001f0 22 a3 30 3d 2f fa 10 3c dd ae 47 bd 54 fb e0 bc
       0.043124326 0.008848711 -0.048750747 -0.027463593
000200 0a 6f 09 bd 9c 64 5b bc 50 b8 43 bd 60 ad 18 bd
       -0.03355316 -0.013390686 -0.047783196 -0.03727472
000210 f7 04 04 3d e9 34 d5 bc 1e 03 6e bc 0b 4d c7 bc
       0.032231297 -0.026026206 -0.01452711 -0.02432873
000220 e2 06 de 3a 16 80 48 3c 15 73 fa bc e4 d0 a3 bc
       0.0016939307 0.012237569 -0.030572454 -0.019997068
000230 85 db e1 3c 86 4f e4 bc e8 fa 85 3c ff 7d 05 3d
       0.027570495 -0.027869951 0.016354993 0.032590862
000240 0a 01 d4 bc 1e 60 c2 3c f8 45 df 3b 72 39 a7 3c
       -0.025879402 0.023727473 0.006813761 0.020413134
000250 f4 c6 0a bd aa 5f 59 bd 55 db d2 bc cc f6 11 3d
       -0.033881143 -0.053069748 -0.025739351 0.035635754
000260 ea 00 23 3d 66 9b 00 3d be dd 0a 3d 60 33 12 3d
       0.039795794 0.0313982 0.033902876 0.035693526
000270 d7 fc 8c 3c 12 6c 25 3c 63 0d 9c 3c ae 30 46 bc
       0.017210407 0.010096567 0.019049352 -0.012096567
000280 7b 3a 7b 3c 71 76 af bc 9c af 95 bc 5f 9f 72 bd
       0.015333767 -0.021418782 -0.018272214 -0.05923402
000290 97 9a 7b 3c 8c e0 57 bc 5a 8b 61 3d 01 13 c3 3b
       0.015356681 -0.013176095 0.055064537 0.005953193
0002a0 62 6d 3b bd bd 4e 00 bc 16 a1 d4 3b 83 51 b7 3b
       -0.045758612 -0.007831273 0.0064889295 0.0055944338
0002b0 55 f3 f4 3c 59 a1 d5 bc b6 89 6b 3c 60 51 86 bc
       0.029901186 -0.026077913 0.014376095 -0.016396224
0002c0 85 fd c4 3c ba e9 0d 3c b8 20 da 3c 3c 56 6c 3d
       0.024046669 0.008661682 0.02662693 0.057699427
0002d0 60 70 c4 3b 53 42 c9 3a 03 d5 82 3c 7c cb 82 bc
       0.0059948415 0.0015354849 0.015970713 -0.01596617
0002e0 cc c4 c0 ba 9e 7a 4b 3d 6a 75 ca 3c 26 08 c8 bc
       -0.0014707088 0.049677484 0.02471419 -0.024417948
0002f0 1a c4 31 bc 28 2e 08 3d 66 83 86 3d 82 51 59 3d
       -0.010849977 0.033247143 0.06568031 0.053056248
000300 13 ae b1 3b b6 6c f1 bc c3 7f 0b 3c 43 7f 6f bd
       0.0054223626 -0.029470783 0.0085143475 -0.058470976
000310 3a ed 52 3d ce 46 f6 bc 83 c9 02 3d b5 a6 0e bd
       0.051495768 -0.03006306 0.031930458 -0.034826953
000320 97 a2 3e 3c f4 c6 23 bc fc 10 22 3d a7 23 e4 3c
       0.011635444 -0.009996165 0.03956698 0.027849032
000330 d0 47 40 bc 73 81 4c bc 89 0b dc bb 50 b9 20 3d
       -0.011735871 -0.012482035 -0.0067152423 0.039239228
000340 97 0a 18 3d 3f b7 99 bc ff a6 e3 3c 30 49 2c bd
       0.037119474 -0.018764136 0.02778959 -0.042061985
000350 97 a9 0a 3d 14 fa 4d bd 27 0e dc 3c e9 32 0a 3d
       0.03385314 -0.05028732 0.026862217 0.033739958
000360 55 f7 e0 3c 1f 8b 21 3c 07 bf 60 bd 42 0b d9 3c
       0.027461687 0.009859829 -0.054869678 0.026494626
000370 d7 d4 57 bd df cf 29 bc cc d6 37 bc 03 2d 83 3d
       -0.052693214 -0.010364502 -0.011220645 0.0640507
000380 66 c6 9f bc a6 74 ba bc c5 8c d8 ba 53 1f 56 bc
       -0.019503783 -0.0227607 -0.0016521445 -0.013068992
000390 51 a8 e7 ba 1a 5b 8b bc 12 b0 1f bc 9c 7a 16 3c
       -0.0017674064 -0.017011214 -0.009746568 0.009184506
0003a0 bb 4a 22 3d 53 02 7e bc 6a 64 0e bd 4b 5a 4b bc
       0.03962205 -0.015503484 -0.03476373 -0.012411664
0003b0 ac ff b1 bc b4 5a 23 3d dc b1 16 bd ee b1 61 3d
       -0.02172836 0.039881423 -0.036790714 0.055101328
0003c0 9f da 36 bd bc 0e e7 bc 70 23 b0 bc c8 2c 48 3d
       -0.044642087 -0.028205268 -0.021501273 0.04887083
0003d0 ce 31 04 3b cd 6d bb bc 96 0e c3 3c 9d 90 8b 3c
       0.0020171287 -0.022879506 0.023810666 0.01703673
0003e0 f4 af 5b 3c b0 ab 62 bd 9b 60 8d 3c 8b 54 7a 3c
       0.01340865 -0.055339515 0.01725798 0.015278946
0003f0 3d 1d 98 bb 35 dc 93 bd f4 3e 1b 3d b7 65 7b bc
       -0.0046421573 -0.072197355 0.037901834 -0.015344075

module.7.bias f4 [64]
000000 e8 a7 8c bc 6e b6 14 3c b9 43 1d 3d 4b 31 44 3d
       -0.017169908 0.009076698 0.038394663 0.047898572
000010 4c ec 10 3c eb 82 1d bc eb 31 e9 3c 7f 57 4c ba
       0.0088454 -0.009613733 0.028466186 -0.00077950204
000020 8a e8 9b 3c a7 f2 c0 3c 28 b5 9e 3c b5 b8 08 bc
       0.019031782 0.023553206 0.019373491 -0.008344819
000030 f2 cb 93 bc 8c a6 09 3d 93 69 99 3c 35 45 fc bc
       -0.018041585 0.033606097 0.0187271 -0.03079472
000040 74 44 e2 bc f4 17 0d 3d c1 06 95 3d 1e 65 08 bc
       -0.027620532 0.03444667 0.07276679 -0.0083248895
000050 69 40 b7 bb a2 b5 32 3c ec 17 56 3c 02 09 dd 3c
       -0.005592395 0.010907562 0.013067227 0.026981834
000060 f6 8b 33 3c 74 eb 66 3c 78 d5 e6 3c 78 29 b1 b9
       0.010958662 0.014094222 0.028177962 -0.00033790967
000070 ee be 8b bc 71 60 e9 bc c4 7b d3 3c ee bf 89 3c
       -0.017058816 -0.02848837 0.025815852 0.016815152
000080 1b 90 28 bb 29 da 5a 3d 0b 05 8a 3c dd c9 04 3d
       -0.002572066 0.05343071 0.016848108 0.032419074
000090 31 66 5a 3d 22 31 0e bd 2d 70 b1 bc 39 60 07 bd
       0.053320114 -0.034714825 -0.021659935 -0.03305075
0000a0 10 02 92 bc f9 48 11 3d 17 80 2e 3d f0 f8 10 bd
       -0.01782325 0.035469983 0.042602625 -0.035393655
0000b0 4a 6d 64 bc 51 14 03 3d d1 8d 91 3c 9d 3a c8 ba
       -0.013942072 0.032001797 0.017767819 -0.0015276257
0000c0 b5 59 7a 3c fb c7 f8 3c 4e f5 49 3d 6a 03 27 3c
       0.015280177 0.030368796 0.049306206 0.010193685
0000d0 72 b9 08 bb 81 9f c0 3b 6c 6c 1e 3d 8a 29 d2 bc
       -0.0020862487 0.0058783893 0.038677618 -0.025654573
0000e0 9e 19 44 bc 29 b6 3b 3c e4 ff 1e 3d 6f 4d d6 ba
       -0.011968998 0.011457005 0.038818255 -0.0016349981
0000f0 f7 66 17 bc 32 ab 4d 3b 9a 05 eb bc 68 ee a2 3c
       -0.009240857 0.0031382558 -0.028689194 0.019889072

module.10.weight f4 [128, 64, 3, 3]
000000 d6 39 11 bd da db 11 3d 7a 8b 8b bc 2b 18 1b bc
       -0.035455547 0.035610057 -0.017034281 -0.009466211
000010 7b 76 00 3d f2 b6 85 bc 92 f2 f7 bc 83 6e 5f bc
       0.03136299 -0.016322587 -0.030267034 -0.013637188
000020 13 ca 15 3d 44 6b b2 3c d4 a8 eb 3c 34 27 21 3c
       0.036569666 0.021779664 0.028767027 0.009836007
000030 59 dc d0 3c a7 99 95 bb 64 08 6c 3d 1f fb f1 3c
       0.025495695 -0.004565436 0.05762519 0.02953869
000040 99 0e 3f 3d 97 77 0b 3d 90 78 d8 bc 43 f7 3c bd
       0.04664478 0.034049597 -0.026424676 -0.046134245
000050 18 e0 4e bc 7b e4 dd 3b 71 01 7a bc b5 f7 41 3d
       -0.01262667 0.0067716218 -0.015259133 0.047355372
000060 d2 36 11 3d b4 dc 9d 3b 6c 49 5a bc c9 22 7e 3c
       0.03545267 0.0048175696 -0.013323169 0.015511223
000070 e5 a1 a7 3b 2f 8d 2e bd a3 7f 22 3c ab c2 c5 3c
       0.005115735 -0.042615112 0.009918126 0.024140676
000080 90 0a d0 3c 61 2d ad 3c 2a 59 06 3c 1e d2 ef 3b
       0.025395662 0.021139802 0.008199969 0.007318749
000090 0e da f9 3c 62 89 2b 3d 89 8e d1 bc 08 af 47 bc
       0.030499484 0.041879065 -0.025580661 -0.012187727
0000a0 c6 fa 09 bd 01 1f b2 b9 11 bf cb 3a bb db f3 bb
       -0.03368642 -0.00033973905 0.0015544613 -0.0074419654
0000b0 32 ce f3 3b 7f 68 b3 3c 5d 35 c7 3c b0 a5 f6 bc
       0.007440352 0.021900414 0.024317438 -0.030108303
0000c0 26 9a 12 bd 76 66 43 3d 6b 8d 57 bc 64 c7 ca 3c
       -0.03579154 0.047705136 -0.013156275 0.02475328
0000d0 b5 2e 55 3c c8 37 12 3d b3 ee b3 3c 04 11 6e 3d
       0.013011624 0.03569773 0.021964407 0.058121696
0000e0 55 5d c6 bc 65 69 a9 3c ae a5 6f 3c 6f 73 79 3c
       -0.024214426 0.020680139 0.014626903 0.015225275
0000f0 18 74 2a bd a8 63 4a bd bc 5a 92 bc b6 ba 10 3d
       -0.041614622 -0.049411446 -0.017865531 0.03533431
000100 cb e6 77 3c 74 1b 17 bd 92 e2 d9 bb dd b3 60 3c
       0.015130709 -0.036891416 -0.0066493237 0.013714758
000110 bd a0 9d bc 8a e8 a2 3c 35 78 c2 bb 7c 60 70 bb
       -0.019241685 0.019886274 -0.00593474 -0.0036678603
000120 14 52 d1 bc 6c eb 29 bd 5e 3a eb 3c 4c 01 ef 39
       -0.025551833 -0.04148428 0.028714355 0.000455866
000130 fe 98 07 3c d5 be 9d bc 09 33 03 3d 6a d1 fb bc
       0.008276222 -0.019256035 0.032031093 -0.030739505
000140 36 8c 5c bd 6d be 28 3d 5e f6 53 3d 97 21 05 3d
       -0.053844653 0.04119723 0.051748626 0.032502737
000150 6e 63 10 3d e5 51 05 3c 13 e8 0e bd 7e 6b 18 bd
       0.035251074 0.008137201 -0.034889292 -0.037211888
000160 8e cb a2 ba 68 75 d1 3c 36 f1 91 bc a5 e4 06 3c
       -0.0012420283 0.025568679 -0.017815214 0.008233224
000170 19 95 0a bd 04 98 f7 bc c1 09 ce 3c 70 88 9c 3c
       -0.033833597 -0.030223854 0.025151135 0.019108027
000180 a9 d3 81 bc ac 97 74 3c 93 ba 2a bc db 4b c2 bb
       -0.015847998 0.0149287395 -0.010420459 -0.005929453
000190 83 7f e8 3c 79 94 2d bd d0 ba 50 3b 06 ba 72 bd
       0.028381115 -0.042377923 0.003184963 -0.059259437
0001a0 18 50 2c bd fe 33 1a bd 0e 38 2c 3c e9 62 e3 3c
       -0.04206857 -0.03764724 0.010511411 0.027757125
0001b0 2d a4 f1 3c d3 9f a7 bc 4c 66 d7 3c f5 1a e4 bc
       0.02949723 -0.020461952 0.026293896 -0.027844885
0001c0 9f 3c 78 bb 1b d4 b6 bc f7 74 eb bb dd 26 97 bc
       -0.003787793 -0.022317937 -0.007185574 -0.018451149
0001d0 ac bf f5 3c b8 df 90 bb 80 f9 20 3b b6 8d 3f bc
       0.029998623 -0.0044212006 0.0024562776 -0.011691501
0001e0 c7 e2 7b 3c a9 6a f0 bc a4 14 ef bc d3 d8 76 bd
       0.015373892 -0.029347735 -0.029184647 -0.060265373
0001f0 ed 55 81 38 16 cd 0a bd 0a 10 e2 bc f3 2a ff bc
       6.167204e-05 -0.03388699 -0.027595539 -0.03114841
000200 ce 42 80 bc 0f fc c0 3b 6e 2e 90 39 88 84 11 bc
       -0.015656855 0.0058894227 0.00027500413 -0.008881696
000210 2f 51 a3 ba 49 27 af bc 2d f1 1f bd 4b c5 b0 bb
       -0.0012460108 -0.021381037 -0.039048363 -0.005394613
000220 4b 5c 73 3d 3e f5 2b bc 66 13 e7 bc 4a a2 f7 3c
       0.05941419 -0.010495482 -0.028207492 0.030228753
000230 1f 98 76 bd 30 08 34 3b 5d b3 88 3d 4c 29 0f 3d
       -0.060203668 0.00274707 0.06674836 0.034951493
000240 c0 be e0 bc cf 05 87 bb 4b 32 ab bc 1f 9f d5 3c
       -0.027434707 -0.0041205655 -0.020898005 0.026076851
000250 f4 a5 39 bc 2c b6 e8 bb 90 7a 1b bc 1c 1e 4e 3d
       -0.01133107 -0.0071017947 -0.00948967 0.050321683
000260 4c 39 c9 bc 5b 76 34 3d b7 fb a6 bb 41 05 3e 3d
       -0.024563454 0.044058185 -0.0050959247 0.04639173
000270 58 f0 0b bc 24 b3 b8 3b 5c 31 10 bc 3b 90 03 bd
       -0.008541189 0.0056365896 -0.008800831 -0.03211997
000280 9a ab 3e bd 01 17 38 bd 39 1a 30 bb fb f7 af 3c
       -0.04655037 -0.044943813 -0.0026871099 0.021480551
000290 a0 03 df 3b 27 1a 15 bd c9 87 34 3c 65 7e 2d 3d
       0.006805852 -0.036401894 0.011018702 0.042356867
0002a0 2a 30 87 3b ad 05 d0 3c f3 cd 20 3c 1d 11 aa bb
       0.0041256147 0.025393331 0.009814727 -0.0051900283
0002b0 ef 8c de 3c da 34 ba b9 2e 55 08 3c 62 ce 52 bc
       0.027166812 -0.00035516062 0.00832109 -0.012866588
0002c0 a0 e3 10 3b 61 8a 0a 3d de 8e f7 bb bb 25 0f bd
       0.0022108331 0.033823375 -0.007554873 -0.034948092
0002d0 1e fa 5c 3c 27 d2 03 bd 0c ed db 3c a0 ba a9 3c
       0.013487367 -0.03218284 0.026846431 0.020718873
0002e0 52 0d 0c 3d ff d5 83 bb b2 c7 a0 bc 18 87 0a bd
       0.03419239 -0.004023313 -0.019626472 -0.03382024
0002f0 b1 7f ce 3c b7 57 c5 3c e8 f8 26 ba a6 a9 01 3d
       0.025207372 0.024089677 -0.00063694874 0.03165593
000300 ba d4 ce bc a8 5d ea bc 89 14 fb 3c df ce 24 bd
       -0.02524792 -0.028609112 0.03064944 -0.04023635
000310 b1 ff 1a bd 68 8d 51 3c 8c ed 28 bc b7 f7 ac 3c
       -0.037841503 0.0127900615 -0.010310542 0.021114213
000320 d3 e0 6f bd 89 07 3e 3d e6 52 27 3b b7 43 18 bd
       -0.05856402 0.046393905 0.002553159 -0.037173953
000330 88 c6 dc bc 68 31 c9 bc 56 56 84 bd 65 59 d3 3c
       -0.026950136 -0.024559692 -0.0646178 0.025799463
000340 2e 1b 32 bb f6 f4 77 bd 45 dd 27 bc 31 a8 fa 3c
       -0.0027176845 -0.060536347 -0.010245626 0.030597778
000350 27 9a 97 3c b8 2a 7e bc d3 f2 8c bc 27 99 2d bd
       0.018506123 -0.015513115 -0.017205631 -0.042382386
000360 9b 81 a3 3c 20 48 23 bd 15 c2 95 bc a4 8d 46 3d
       0.019959262 -0.039863706 -0.018281022 0.048474923
000370 3f 8a e8 3c 87 c0 1c bd 79 e8 e2 bc 97 c0 c1 bb
       0.028386233 -0.038269546 -0.027698742 -0.005912851
000380 d8 ae 2e bd c2 f1 d2 bc 0b 19 cc bc 0a 91 bb bc
       -0.042647213 -0.025750045 -0.024914285 -0.022896308
000390 79 cf 2d 3c 64 e6 05 3d ba 75 2e 3d dd af 00 bd
       0.010608547 0.03269042 0.04259274 -0.031417716
0003a0 24 ec 12 3a 74 c4 03 3d b1 75 2f b9 a1 94 55 bc
       0.00056046457 0.032169774 -0.00016733144 -0.013035924
0003b0 63 c9 61 3c f2 bb 4e 3d 82 f3 ac 3c 1d fa ea 3c
       0.0137809245 0.050472207 0.021112207 0.028683716
0003c0 01 e6 c5 3c c4 0b 0c bd 14 a0 16 3d ee 76 6e 3c
       0.024157526 -0.034190908 0.036773756 0.014554722
0003d0 0c ac a7 3c 32 7e f1 3c 70 40 1d bd f6 e7 10 3c
       0.02046778 0.02947912 -0.03839153 0.008844366
0003e0 89 e5 c1 bb 8d a8 9e bc e2 94 10 3d 6c 4f 9f bc
       -0.0059172553 -0.01936748 0.035298236 -0.019447051
0003f0 72 14 99 3c b6 9e 96 3c 1d 44 bf bc 74 03 cb bc
       0.018686507 0.018386226 -0.023347909 -0.02478192

module.10.bias f4 [128]
000000 32 a7 d6 bc 2e 0c d1 3a 64 9e d8 bc 90 f9 8a 3c
       -0.026202772 0.0015949064 -0.026442714 0.016964704
000010 96 75 27 bc 04 cc 00 3d 20 e2 a2 bc b4 ca 19 3d
       -0.010220906 0.031444564 -0.019883215 0.03754683
000020 f1 fb 88 3c 32 7a bb 3c f1 9e 08 3c 14 2b d8 3c
       0.016721698 0.022885416 0.008338676 0.026387729
000030 75 22 ca bc 4b 84 19 bd fd a5 9c bc 29 17 24 bd
       -0.024674634 -0.03747968 -0.019122118 -0.04006115
000040 1e 6a a5 3c 63 13 80 3c 8e 66 2f 3d fa 16 8e 3c
       0.020192202 0.015634244 0.042822413 0.01734494
000050 a5 a3 fe bb b3 4d 75 3b c4 07 1f bd 69 2b bf 3c
       -0.007770973 0.0037430346 -0.038825765 0.02333613
000060 92 4e 49 bc a9 16 d2 3c 76 d9 aa bc e0 d7 c9 bc
       -0.012286799 0.02564557 -0.020855647 -0.02463907
000070 50 95 84 bb ab 61 e2 bc be 3c 6d bc 7a 7c b0 3c
       -0.0040461197 -0.027634462 -0.014479814 0.02154373
000080 22 87 2f bc b5 c0 89 bb f4 98 4a bd 94 f9 0f bc
       -0.0107133705 -0.0042038807 -0.049462274 -0.008787531
000090 9a b0 3f bd 64 12 5e bc 38 02 0c 3d d6 50 f4 3c
       -0.04679928 -0.013554189 0.034181803 0.029823702
0000a0 2e 95 0c 3d 7d ee ce 3b ff 63 ca bc c7 20 e4 bc
       0.034321956 0.006315051 -0.024705885 -0.02784766
0000b0 d6 3c 95 bc 65 b3 3c 3c 1b 84 49 bd c3 c8 39 3d
       -0.018217485 0.01151738 -0.04919825 0.045357477
0000c0 a0 a3 e4 bc ff d8 d7 bc 29 6b a7 3c 8a 1d 26 bd
       -0.027910054 -0.026348589 0.02043684 -0.040555514
0000d0 f0 39 a6 bc 64 a0 51 3d c9 8d b8 bc 30 52 16 3d
       -0.020291299 0.05117835 -0.022528546 0.036699474
0000e0 cc 10 0c bd 0b 89 9c 3c 15 41 2a 3c 45 aa 39 3d
       -0.034195706 0.019108316 0.010391493 0.045328397
0000f0 61 59 de bc bc 62 09 3d d6 c2 df bc 01 b2 2d bc
       -0.027142229 0.033541426 -0.027314585 -0.0106015215
000100 81 59 12 bd 78 63 b9 bc 35 ff be bc 35 2c 73 3b
       -0.03572989 -0.022630438 -0.023315052 0.0037105207
000110 5c ca 41 bc 86 70 4c 3d 44 e1 b4 3c 6b b4 ec 3c
       -0.011828031 0.049912 0.022080071 0.028894624
000120 47 5b 6c 3b 66 03 23 bd a3 6b 18 3d 8f e0 9e bc
       0.0036065148 -0.039798163 0.037212025 -0.019394187
000130 db 73 30 bd aa 89 34 3d bf ab c5 bc 16 05 85 b9
       -0.04307924 0.0440766 -0.024129746 -0.00025371526
000140 d2 44 f3 3c c9 7f bc bb 55 49 c0 bc 53 39 44 3c
       0.029695902 -0.005752538 -0.023472467 0.011976558
000150 96 5d 27 3d af b9 a5 ba eb d9 d1 b9 ed 22 4b 3c
       0.040860735 -0.0012643839 -0.00040025948 0.012398464
000160 48 44 b1 3c 43 7b 84 3c 54 a7 f4 ba 4c 1a 31 3d
       0.021639004 0.016172057 -0.001866559 0.04323797
000170 69 56 f4 3c 6a cd 7c 3c 90 c2 4e bb e5 a4 0a bd
       0.02982636 0.015429834 -0.0031549074 -0.033848662
000180 1b 4d bf 3c 1a 04 1b bc 3f 28 38 bc 86 a2 fb ba
       0.023352196 -0.009461427 -0.011240064 -0.0019198216
000190 cb b5 a4 3b ca 3b da 3c 21 b6 a5 bc 4a 9f 06 3c
       0.005026554 0.026639838 -0.020228447 0.008216688
0001a0 ad 8d 15 3c 07 fd 87 bc 23 cd be 3c 20 db 0c bd
       0.009128016 -0.016600145 0.023291176 -0.03438866
0001b0 39 c7 fb bc eb 64 57 bc d7 5b 49 3d ac b2 ff 3c
       -0.030734645 -0.013146619 0.04915985 0.031213127
0001c0 96 83 22 3d f9 d3 32 3d b1 4b ee bc 70 b3 54 3d
       0.03967627 0.043659184 -0.029088827 0.051928937
0001d0 f2 10 ab 3c b7 ab 3f 3d 90 75 7f bb bd 0b 68 bc
       0.020882104 0.04679462 -0.0038979985 -0.014162955
0001e0 f9 e2 f1 bc 8c af da bc e2 3a 1d 3d f8 99 10 3d
       -0.029527174 -0.026695035 0.038386233 0.035303086
0001f0 f0 fa 2c 3d 4e 36 03 3d 2f a1 d7 3c fc 15 43 bd
       0.0422315 0.03203421 0.026321976 -0.047628388

module.15.weight f4 [1, 2048]
000000 02 3d 0e bb e8 d3 00 3d b8 2a ff bb 8d 3f 97 3a
       -0.0021703844 0.03145209 -0.007787075 0.0011539325
000010 7d ac f9 b9 45 4f dd 3c b0 2d 07 bc 10 b1 ea 3c
       -0.00047621495 0.027015338 -0.008250639 0.028648883
000020 1e 6d 05 3d 86 43 c3 bc 2a f0 00 3c 79 a0 7e bb
       0.032574765 -0.023835909 0.00786976 -0.0038852973
000030 0f 5e 06 bd 68 7c a8 bc ae 9a 47 3c 69 50 d8 3c
       -0.032804545 -0.020567134 0.012182875 0.02640553
000040 40 34 72 bc 37 6c d3 3c 5b 8e f2 3c 85 ca 7d bc
       -0.014782965 0.025808437 0.029608896 -0.015490179
000050 d3 71 8d 3c df 47 c8 bb 9a 07 6d 3c dd 06 4a 3b
       0.01726619 -0.0061120833 0.014467144 0.0030826845
000060 0b 31 2b 3d dd 82 53 bb 40 4d f1 3a 18 c2 55 3c
       0.041794818 -0.0032274046 0.0018409863 0.013046764
000070 33 e8 fb 3c 79 05 15 39 86 9d 0a 3d 30 1d 9a bc
       0.03075037 0.00014211786 0.033841632 -0.018812746
000080 72 49 fc bc 28 00 08 3d cb 07 7d 3d 76 cb 87 39
       -0.03079674 0.033203274 0.06177501 0.00025900797
000090 69 21 49 3d 77 6c 87 3c be a8 92 bc 0b f5 25 3c
       0.049104128 0.016531212 -0.017902728 0.010129224
0000a0 b3 cc 43 3d 04 d6 6a ba aa 40 80 3b 5b 9d ed ba
       0.04780264 -0.00089582824 0.0039139586 -0.0018128561
0000b0 da 39 29 3d 51 50 41 bc 68 16 6a 3c 06 06 ce bc
       0.041314937 -0.011798934 0.014287569 -0.025149357
0000c0 b4 e2 82 3c c7 a1 04 bd 87 b7 37 bc 38 94 0f bc
       0.015977241 -0.032380845 -0.01121319 -0.008763365
0000d0 af b9 31 bd a2 47 7a 3c 8f 50 90 bc 22 76 0b 3c
       -0.043389972 0.015275868 -0.017616538 0.008512052
0000e0 9d 66 1b bd eb b8 3f bc 6e 49 50 bb a4 5f a9 3b
       -0.037939657 -0.011701803 -0.0031782049 0.005168872
0000f0 ff 2f a5 3c 41 4d 53 3c 68 78 9d ba 09 50 98 3c
       0.020164488 0.012896837 -0.0012014033 0.018592851
000100 08 4e ba bc 73 57 26 3c e5 53 e8 3c e5 e4 bc ba
       -0.022742286 0.010152685 0.028360317 -0.0014411478
000110 78 69 16 3d ed 80 f9 3c 27 c8 9a bc 63 b5 ce 3b
       0.036721677 0.030456984 -0.018894268 0.006308244
000120 a9 c0 37 3d 71 02 86 ba 0e c1 8c 3b 9a b2 90 3b
       0.04486147 -0.0010224116 0.004295475 0.004415822
000130 48 b7 84 bc 7f 51 2c bc 73 10 8f bc 1c d5 14 3d
       -0.016200677 -0.010517477 -0.017463898 0.03633605
000140 df aa e0 bc 53 3d 7c bb 50 5c 33 3c 9f 10 8b bc
       -0.027425228 -0.00384887 0.010947302 -0.016975699
000150 76 02 a9 bc 8f c3 3c 3c 78 f0 95 3c 3a 20 2d 3b
       -0.020631056 0.011521234 0.018303141 0.0026416914
000160 5b bd e5 3c 05 7f f0 bb bd 2d c0 3a 85 47 3a bc
       0.028044393 -0.0073393607 0.0014662069 -0.011369591
000170 41 b9 13 3d 90 25 89 bc 8d ec db 3c d4 4d 68 3b
       0.036065344 -0.016741544 0.026846195 0.003544678
000180 bf 7e 7e 3c cc 39 14 bc 55 a6 05 3b 27 37 a1 bc
       0.015533148 -0.009046983 0.002039333 -0.019679619
000190 69 7d 65 bc 48 1a 9d 3c c7 77 18 bc be 83 4a bc
       -0.014006951 0.019177571 -0.009305901 -0.012360511
0001a0 a8 11 8d 3b fd 5b b9 3b f6 a7 ae 3b 81 0d e8 3b
       0.0043050833 0.005656718 0.005330081 0.007081688
0001b0 24 ee 7a 3c e5 d0 16 3c bf 2b 4d 3c 66 98 99 3b
       0.015315566 0.009205078 0.012522637 0.0046873568
0001c0 73 c5 b6 3c a9 47 26 bd 35 b7 41 3c 31 c5 86 bc
       0.022310948 -0.040595684 0.011823465 -0.01645145
0001d0 60 28 dc bc d2 48 7b 39 94 b9 9c bc fa f6 99 39
       -0.026874721 0.00023964353 -0.01913146 0.00029366446
0001e0 a6 af f2 bc 8e cd 0c 3b 63 f3 c8 3a 71 6a e0 3b
       -0.029624771 0.0021484825 0.0015331324 0.0068486263
0001f0 07 85 a2 3c c2 22 8f bc e6 fa 27 bc bd 42 84 bc
       0.019838823 -0.017472629 -0.01025269 -0.016145105
000200 f3 c9 00 3c 43 42 5c 3d 4e 59 34 3d 2e 3d bf bc
       0.007860648 0.05377413 0.04403048 -0.023344602
000210 51 38 8d bc c0 56 bc 3c 32 57 2e 3c 91 23 0d 3d
       -0.017238768 0.022990584 0.010640906 0.034457747
000220 66 a1 81 3c d2 24 ae 3c a3 eb b2 3b 70 dd c9 bc
       0.015824031 0.021257792 0.005460219 -0.024641722
000230 ce b1 4d 3c ba 65 0c bd e6 ef 9a 3b c8 a5 f9 ba
       0.012554599 -0.0342767 0.004728305 -0.0019046599
000240 6f 73 05 bd cb 84 84 bc e5 90 05 bc 8a fd 66 bc
       -0.03258079 -0.016176602 -0.008152221 -0.014098534
000250 0e 4c ac 3c 93 7f 76 3c d0 8f a2 bc 4c 58 02 3d
       0.02103236 0.0150450645 -0.019843966 0.031822488
000260 81 94 75 bb 08 ef 26 bc 8d 6b a7 3b 6d 65 f3 bc
       -0.0037472548 -0.010188825 0.0051092566 -0.02971145
000270 76 74 9c bb d2 d7 76 3c 55 7a ac 3b f4 9b 75 3d
       -0.0047746254 0.015066104 0.0052636066 0.05996318
000280 52 0e 35 3c 55 0b 7b bb b3 51 21 3c a5 64 b0 3c
       0.0110507775 -0.0038306315 0.009846139 0.021532366
000290 ca 2a 4a bb 5f 59 d0 bb 27 22 58 3c 4c 37 2b bc
       -0.0030848258 -0.00635831 0.013191736 -0.0104501955
0002a0 70 5b 8d 3c b7 24 37 3b 9a 0a c9 bc 2b f0 17 bc
       0.017255515 0.0027945468 -0.024541188 -0.009273569
0002b0 20 8e 7d 3c f0 ba d4 bb 9d 7c fe 3a ed 2e 14 bd
       0.01547578 -0.0064920112 0.00194158 -0.036177564
0002c0 32 7c b3 bc 56 db 30 3d 92 3b 33 bc 6a f8 08 3c
       -0.021909807 0.043177925 -0.010939496 0.008360008
0002d0 17 b5 4d 3b 19 e7 5d bc 22 c4 30 bd ce 40 fc bb
       0.0031388456 -0.0135438675 -0.043155797 -0.007698155
0002e0 a5 ec 05 3d 98 5b e3 bc de 1e d4 ba 24 e7 1a 3d
       0.032696385 -0.027753636 -0.0016183516 0.03781809
0002f0 9e ee 24 3d 5c e0 c5 ba 83 1c e6 b9 2d a4 f9 bc
       0.040266626 -0.0015096772 -0.0004389026 -0.030473793
000300 37 38 8f ba 44 3f 81 3c 3b 46 8a 3c 1f 0e c7 3a
       -0.0010926788 0.015777238 0.016879192 0.0015186704
000310 53 9b fe 3c 81 a2 d5 bb be 2c a9 bb f4 ce 30 3d
       0.031079924 -0.006519616 -0.0051628044 0.043166116
000320 0c a8 42 bc c9 3e 4e 3c 9c e2 37 bb 21 7a 99 3b
       -0.011880886 0.012588211 -0.0028058654 0.0046837484
000330 ea 82 c2 3c 3d 55 91 3c 6b 42 e9 3c 04 40 b8 bc
       0.023744065 0.01774084 0.028474053 -0.022491463
000340 26 11 b2 bc d9 07 0a bd 7d b7 a9 ba db c3 24 3c
       -0.021736693 -0.03369889 -0.001294836 0.010056461
000350 5e 41 28 3d 00 b9 b7 3c 4b 7e d8 3b 5a 13 10 bc
       0.041077964 0.022427082 0.006606852 -0.008793676
000360 de 69 e1 3c a3 23 77 3c 1f cc 86 bb a2 d9 d6 bc
       0.027516302 0.01508418 -0.0041136886 -0.026226822
000370 df a5 ae 3c 5e 89 f7 39 f1 af ee 3c 3e 35 df 3c
       0.021319328 0.00047213858 0.02913663 0.027247068
000380 5c 1d 59 3c 49 f3 69 3d 05 c2 ac 3c 85 9d 0f bd
       0.013251629 0.05711678 0.02108861 -0.03506233
000390 a9 85 7b 3b 60 15 1d bc b1 88 85 bb cf 14 47 3d
       0.0038379228 -0.009587616 -0.004075133 0.04860383
0003a0 b3 c3 8b 3c 78 c4 8b bc b3 07 91 3c 20 0d 4d 3c
       0.01706109 -0.017061457 0.017703867 0.012515336
0003b0 5e 73 05 3c b6 45 62 3c 24 b6 cb 3c 9c 0c bf 3c
       0.008145181 0.013810566 0.024867125 0.023321442
0003c0 e6 00 31 bc 99 72 7b 3d d3 7d 0f 3d 5d 13 a2 bc
       -0.010803437 0.061388586 0.035032105 -0.019784624
0003d0 f1 21 5a 3d 96 4c 8a bc 40 c0 9a bc 2c 80 f4 3c
       0.053255025 -0.016882222 -0.0188905 0.029846273
0003e0 f3 99 4f bc 0e e9 79 3c 14 92 92 3c 9c 65 8d bb
       -0.012670982 0.0152533185 0.017891921 -0.0043150913
0003f0 df c9 f7 3c fd b2 99 bc cf 56 71 3c f0 c6 64 bc
       0.030247627 -0.018762106 0.014730169 -0.013963446
