saved_models/lin-fft/2024-06-04_23-11-52.pt (torch, 50848 bytes, 1 tensors)

module.1.weight f4 [1, 12288]
0.0081447 0.024181683 0.0072361575 -0.006417262 0.0059500095 -0.02507579 0.024316534 -0.017596157
0.02284068 -0.029902145 -0.010681348 0.011114079 0.014023852 0.007721087 -0.005016697 0.034692165
0.006367635 0.0176948 0.013470374 0.0380751 0.011156835 0.038612068 0.05307364 0.037875615
0.052980226 0.050628543 0.052463047 0.049210876 0.0434262 0.0384914 0.040049464 0.047135465
0.015012936 0.054496855 0.03287562 0.03451902 0.045036994 0.047761552 0.0395272 0.050268184
0.037237793 0.03306799 0.047487635 0.023202235 0.011023868 0.042301796 0.013744113 0.03358503
0.0028838033 0.039961535 -0.007528327 0.012632698 0.0137107475 0.007162761 -0.0086622005 -0.03469388
0.03615931 -0.028192973 0.02278913 -0.024600685 0.003937321 -0.021215335 -0.0020751932 0.024281882
-0.0031949533 -0.0017672927 0.02219774 0.013365408 0.0033654275 -0.022127785 0.006120299 -0.029428089
0.023852149 -0.025648095 -0.008654956 -0.008605282 0.0036197533 0.0066186516 -0.0083340155 0.008576789
0.011115126 0.021330496 0.016030721 0.032721814 0.004609696 0.010569675 0.031646818 0.03195424
0.015522499 0.011588662 0.030663313 0.02623845 0.026118176 0.009511491 0.01938846 0.011148692
0.018312301 0.018874703 0.011718842 0.018868577 0.021079775 0.030888114 0.03352032 0.040680505
0.028553555 0.0075448235 0.010812386 0.02370141 0.02771065 0.034841046 0.029490054 0.022930017
0.01298851 -0.002997756 -0.034026776 0.008015604 -0.01009821 -0.013919498 -0.0076970463 -0.019008152
0.02000959 -0.010692504 0.009561772 -0.0014836275 0.0009748964 0.016133428 0.020467937 0.017788572
0.020149382 -0.03687574 -0.04287879 0.013966532 -0.05457205 -0.023273073 -0.021066915 -0.008809181
0.010215099 -0.003202131 -0.005926904 0.0034697948 -0.027067095 -0.028245497 -0.02989737 -0.010011139
-0.019592158 -0.02218393 0.004994338 0.009768195 -7.932673e-05 0.030378584 0.02224228 0.0019252027
0.012587937 0.04052676 0.015744794 0.016240193 0.012686121 0.027971826 0.030082846 0.029308304
0.028768625 0.020558242 0.019973336 0.020906024 0.016565949 0.022785442 0.024506051 0.02242912
0.009817873 0.023820002 0.016299738 0.010741186 0.0065849116 0.011243537 0.011589676 -0.0041830516
-0.0006592984 -0.008798127 -0.016476916 -0.0040196525 -0.030816777 0.024826534 -0.014357884 0.0017872832
-0.013775903 -0.0072510964 0.007235101 -0.0051290146 -0.030323615 0.01163011 -0.04103381 -0.013618643
-0.029955393 -0.047177363 -0.0023742297 -0.043322835 -0.030964302 -0.02420877 -0.02782458 -0.03161009
-0.032594748 -0.027896632 -0.0002176613 0.009969455 -0.02462622 -0.0027038595 -0.025610851 -0.014533538
-0.036477704 -0.02601907 -0.031192275 -0.034668617 0.00034940572 -0.025534103 0.0012639324 -0.02350483
-0.0031810633 -0.0019715398 0.0077482127 0.008202098 0.004535741 0.015774908 0.008847663 0.0025991255
-0.0015110852 0.011390077 0.013829882 0.008694754 0.001809631 -0.003998335 0.017437246 0.010343845
0.0029202125 -0.014767121 -0.015458759 -0.019798137 -0.016474953 -0.023803264 0.00073629816 -0.011764417
-0.021093644 0.002377112 -0.0077799046 0.0013532253 -0.0019766625 0.010337535 -0.032900173 -0.0150675755
-0.016860144 -0.0305468 -0.011040111 -0.01091761 -0.022153305 -0.011709943 0.010646924 -0.016738506
00000000: 5971 053c aa18 c63c 4a1d ed3b e547 d2bb
00000010: 4cf8 c23b be6b cdbc 7833 c73c d125 90bc
00000020: 611c bb3c 58f5 f4bc d200 2fbc d317 363c
00000030: 4cc4 653c 2c01 fd3b 1b63 a4bb 5f19 0e3d
00000040: 98a7 d03b aff4 903c d8b2 5c3c a3f4 1b3d
00000050: 28cb 363c b027 1e3d bf63 593d 7623 1b3d
00000060: cb01 593d e05f 4f3d 7ee3 563d 5891 493d
00000070: acdf 313d 29a9 1d3d e80a 243d 1e11 413d
00000080: d1f8 753c 1838 5f3d 96a8 063d d163 0d3d
00000090: b678 383d 9ea1 433d 46e7 213d 03e6 4d3d
000000a0: a886 183d 4d72 073d 6582 423d 9d12 be3c
000000b0: 749d 343c a644 2d3d fd2e 613c 7590 093d
000000c0: 31fe 3c3b b5ae 233d 2fb0 f6bb 60f9 4e3c
000000d0: 0ba3 603c 98b5 ea3b e7eb 0dbc 2b1b 0ebd
000000e0: c91b 143d f3f4 e6bc 45b0 ba3c 6087 c9bc
000000f0: a404 813b c8cb adbc f7ff 07bb ccea c63c
00000100: 6c62 51bb 81a4 e7ba 09d8 b53c 96fa 5a3c
00000110: 818e 5c3b 5445 b5bc ca8c c83b 2d13 f1bc
00000120: 9565 c33c f41b d2bc 84cd 0dbc 2bfd 0cbc
00000130: 6239 6d3b 46e1 d83b 658b 08bc a985 0c3c
00000140: 381c 363c 4bbd ae3c dc52 833c 4f07 063d
00000150: ef0c 973b 6e2c 2d3c 18a0 013d 73e2 023d
00000160: 1452 7e3c 5fde 3d3c a131 fb3c 05f2 d63c
00000170: c9f5 d53c 16d6 1b3c 8cd4 9e3c 01a9 363c
00000180: ae03 963c 1f9f 9a3c 6300 403c 4692 9a3c
00000190: 7eaf ac3c 1209 fd3c 9a4c 093d 9aa0 263d
000001a0: 25e9 e93c 913a f73b 6f26 313c 7629 c23c
000001b0: 7201 e33c 7cb5 0e3d 2095 f13c bbd7 bb3c
000001c0: c2cd 543c 0076 44bb a95f 0bbd e153 033c
000001d0: f672 25bc 9b0e 64bc 8137 fcbb fcb6 9bbc
000001e0: 27eb a33c 9d2f 2fbc fba8 1c3c 4776 c2ba
000001f0: 3190 7f3a 402a 843c 60ac a73c 57b9 913c
00000200: 5110 a53c 040b 17bd aca1 2fbd e2d3 643c
00000210: f186 5fbd 2ca7 bebc 8694 acbc 6254 10bc
00000220: 3b5d 273c d8da 51bb 7936 c2bb 7f65 633b
00000230: d0bb ddbc 1a63 e7bc 54eb f4bc c305 24bc
00000240: bc7f a0bc 13bb b5bc 8ba7 a33b c80a 203c
00000250: 375c a6b8 82dc f83c 7135 b63c 1557 fc3a
00000260: a23d 4e3c 63ff 253d 3afb 803c 270a 853c
00000270: 73d9 4f3c 2c25 e53c 4d70 f63c f817 f03c
00000280: 2eac eb3c c269 a83c 1f9f a33c 1c43 ab3c
00000290: 50b5 873c 89a8 ba3c eac0 c83c 46bd b73c
000002a0: 25db 203c 2a22 c33c 0787 853c cdfb 2f3c
000002b0: 3ec6 d73b d036 383c a0e2 3d3c fb11 89bb
000002c0: c4d4 2cba 0526 10bc 99fa 86bc 4ab7 83bb
000002d0: 7773 fcbc 0461 cb3c 553d 6bbc 4643 ea3a
000002e0: 53b4 61bc 9b9a edbb 6d14 ed3b 4b11 a8bb
000002f0: 3b69 f8bc 388c 3e3c 1113 28bd bb20 5fbc
00000300: 0365 f5bc 0d3d 41bd f798 1bbb 4973 31bd
00000310: d9a8 fdbc 7851 c6bc 60f0 e3bc 9579 01bd
00000320: 1282 05bd 7a87 e4bc 033c 64b9 ed56 233c
00000330: edbc c9bc 3c33 31bb d9cd d1bc 141e 6ebc
00000340: a569 15bd f225 d5bc f186 ffbc ae00 0ebd
00000350: 7130 b739 e52c d1bc 89aa a53a 348d c0bc
00000360: 6379 50bb f334 01bb b8e4 fd3b 1862 063c
00000370: 8ea0 943b 613a 813c caf5 103c 1756 2a3b
00000380: 9b0f c6ba 729d 3a3c bb96 623c 7174 0e3c
00000390: 2431 ed3a 7704 83bb 8ed8 8e3c 3b79 293c
000003a0: 0961 3f3b cbf1 71bc bc46 7dbc b42f a2bc
000003b0: 7bf6 86bc 10ff c2bc 2204 413a 8bbf 40bc
000003c0: 94cc acbc 52c9 1b3b 92ee febb b55e b13a
000003d0: e58a 01bb c45e 293c 55c2 06bd fedd 76bc
000003e0: 491e 8abc 483d fabc 95e1 34bc c6df 32bc
000003f0: d97a b5bc 10db 3fbc 7070 2e3c 311f 89bc
