saved_models/lin/2024-06-04_23-12-26.pt (torch, 50848 bytes, 1 tensors)

module.1.weight f4 [1, 12288]
000000 0c dd ce bc 22 d4 69 bc 02 49 b5 bb 72 62 7f 3b
       -0.025251888 -0.014271768 -0.005532385 0.003896859
000010 96 0b e3 bb 05 4f b1 3b 2f ca 11 bc fa d3 c0 bb
       -0.0069288714 0.005411031 -0.008898302 -0.0058846446
000020 f4 88 e1 39 6f ea 6e ba 38 b6 ca bb 63 56 0f bc
       0.00043017382 -0.0009113913 -0.006186273 -0.008748624
000030 c2 16 5b bc cc b3 ad ba bb 71 fa bb c8 cd 22 bc
       -0.013372125 -0.0013252436 -0.0076429523 -0.009936757
000040 8e 1a 24 bc f0 7e 7a bc a5 88 2d bc 56 41 84 bb
       -0.010016097 -0.015289053 -0.010591661 -0.004036109
000050 c5 b7 4a bc 2d 6a 35 bb 9a 3d ba bb cb b8 71 bb
       -0.012372916 -0.0027681694 -0.005683613 -0.0036883827
000060 4a 75 49 bc c1 f3 7e bc d4 71 8c bb ae 3b 2f bc
       -0.01229603 -0.015561045 -0.0042860303 -0.010695381
000070 8c de 24 bc 5d e8 9a bb d9 f1 18 3c 62 31 9a 3b
       -0.010062825 -0.004727407 0.009335005 0.004705594
000080 08 88 ab 3b c4 8b 25 3b 13 34 89 bb 36 5a ce bb
       0.005234722 0.0025260309 -0.004187116 -0.006297375
000090 89 7c 74 bc e8 c8 7b bb 24 25 3c bc cf 8d 1f bc
       -0.01492227 -0.003841931 -0.011483464 -0.0097384
0000a0 a0 76 2b bc 08 6e 61 bc 37 bb 51 bc f1 fb c1 bb
       -0.010465294 -0.013759144 -0.012800983 -0.0059199263
0000b0 9a 58 e4 bb d4 b8 3c bc db 46 39 3b 1b 51 e2 bb
       -0.00696857 -0.011518676 0.0028270993 -0.006906641
0000c0 c7 88 db bb b4 b1 e6 bb 5e cb 2c bb 90 20 04 bc
       -0.0066996547 -0.007040227 -0.0026366333 -0.008064404
0000d0 ca af 4d bc d1 39 e4 3a 1c b0 16 bc 6d 47 7b 3b
       -0.012554118 0.001741225 -0.009197261 0.0038342134
0000e0 25 d1 3f 3b 40 97 b7 3b 13 dd 3f bb 49 07 74 bc
       0.0029268947 0.005602747 -0.0029276058 -0.014894315
0000f0 93 24 8e bc 90 f4 96 bc 7a 0b c7 bc cc fc 08 bd
       -0.017351424 -0.018427163 -0.024297465 -0.03344421
000100 d7 b5 f7 bb 3b e6 a6 bb 60 fb dd ba a5 49 0a bc
       -0.007559519 -0.0050933636 -0.0016935878 -0.00844041
000110 31 46 4d bc 35 f2 1c bc 0e 3e 25 bb ce eb f6 bb
       -0.012528942 -0.009579231 -0.002521399 -0.0075354343
000120 2d 46 ba bb a7 60 89 3a 6e 63 d9 ba 80 40 b1 bb
       -0.005684635 0.0010481075 -0.0016585418 -0.0054093003
000130 9f f0 e9 bb df 29 a5 bb 6b 92 b2 3a df 09 ca b8
       -0.00713928 -0.005040392 0.0013623958 -9.633949e-05
000140 ca f2 92 bb b5 51 eb 3b 29 c0 ac ba 30 49 03 bc
       -0.004484509 0.007181371 -0.0013179827 -0.008013055
000150 a5 b2 75 bc 63 b9 18 bb e2 bd 14 bb c2 f4 a4 3a
       -0.014996205 -0.0023303858 -0.0022696187 0.001258515
000160 aa 5f ff b9 19 e6 26 ba 7b bf 35 3a 3a c4 c6 bb
       -0.00048708665 -0.00063666847 0.0006933135 -0.0060658725
000170 59 cd b0 bb 0f 84 9e bb c0 9e 1a 3b 37 b6 f2 3b
       -0.005395573 -0.00483752 0.0023593158 0.0074069756
000180 1d e0 44 bb e6 96 4c ba c1 5a 20 3c c9 16 e8 bb
       -0.0030040808 -0.0007804468 0.009787262 -0.0070827943
000190 06 38 05 3a 7f 28 9b b9 01 64 df 39 92 9a 42 bc
       0.00050818955 -0.00029594076 0.00042608383 -0.011877673
0001a0 d4 6f 17 bc 28 22 00 bc a6 51 ef bb 40 f7 2e 3b
       -0.0092429705 -0.0078206435 -0.0073034344 0.0026697665
0001b0 fe 2b d6 bb 60 6f f2 3b 09 0d 64 bb f4 b2 8e 3a
       -0.006536006 0.007398531 -0.0034797809 0.0010887072
0001c0 33 91 e6 3a c9 d2 dc 3b bc 55 f2 3b e8 4a 6a 3b
       0.001759088 0.0067389947 0.0073954742 0.0035750214
0001d0 e0 e4 51 3b 2f 75 b7 3b eb 5e ae bb b9 29 ff bb
       0.003202729 0.005598686 -0.0053213737 -0.007786956
0001e0 71 9f ba 3b e0 85 02 bc e2 31 41 3a 66 2c 85 ba
       0.0056952764 -0.007966489 0.0007369799 -0.0010160326
0001f0 c6 79 b3 bb a0 ee 91 38 2c 05 82 bb 0c 7c 81 bc
       -0.005477163 6.958586e-05 -0.0039679017 -0.01580622
000200 aa 21 e3 bb 22 c6 ff 3b 29 03 04 3c 61 e9 46 3b
       -0.0069315033 0.0078056017 0.008057394 0.0030351507
000210 8d 62 84 ba 51 65 c1 bb c7 19 86 3b 99 f2 83 bb
       -0.0010100171 -0.0059019704 0.0040924284 -0.0040267226
000220 49 53 9b 3a d9 38 00 bc df d8 43 3b ab 3f d0 3b
       0.0011850382 -0.007826054 0.0029883904 0.006355246
000230 d4 fb 5d 3b a9 0e 9a ba 7c 5e 67 3b 5b fc 06 bc
       0.0033872025 -0.0011753637 0.003530412 -0.008238877
000240 4c a7 27 ba 0e 17 d1 3b 0c c8 b2 3b df ac 4b 3b
       -0.00063954736 0.006380922 0.0054559764 0.003107838
000250 2c b6 63 3b 04 a7 3c ba cd e4 4a 3b d4 a4 16 3c
       0.0034746034 -0.0007196518 0.003095913 0.0091945715
000260 50 c5 04 bc f9 11 83 b9 11 a6 47 b9 3b 7c 7d ba
       -0.008103684 -0.00024999658 -0.00019039983 -0.0009669696
000270 ae fd 0c bc 09 c8 c7 ba 53 8e 80 3a 42 32 9a bb
       -0.008605404 -0.001524211 0.0009808041 -0.004705698
000280 f9 ad 1a 39 9c 2b a5 bb 54 0f b1 bb 35 e1 8e bb
       0.00014751394 -0.005040599 -0.0054034386 -0.004360343
000290 93 88 34 3b 3f ba 8d b9 9c 1e e9 bb 97 0c 7b ba
       0.0027547225 -0.0002703238 -0.0071142446 -0.0009576766
0002a0 bf a8 e0 ba 86 52 af bb 9f 36 0a 3c 13 c9 1b 3c
       -0.0017140134 -0.0053504137 0.008435874 0.009508389
0002b0 cb d9 90 bb ab db a6 3b 92 c3 ba ba fa a0 bd 3a
       -0.004420494 0.0050921044 -0.0014248958 0.001446753
0002c0 42 a0 c0 3b 41 9c 62 bb da 4f 52 bb f7 75 5e 3b
       0.005878479 -0.0034577998 -0.0032091052 0.0033944824
0002d0 eb 11 f0 bb 20 54 31 3c f4 b8 a2 3b b7 e5 3f 3c
       -0.0073263547 0.01082328 0.004965896 0.011712483
0002e0 e9 85 4a bb 44 9e 64 b9 b0 6b db 3b 27 d5 16 3c
       -0.003090257 -0.00021802733 0.006696187 0.009206093
0002f0 f3 94 aa 3b d0 ab ee 3a 83 72 0a 3b fb da 96 bc
       0.0052057444 0.0018209163 0.0021125383 -0.018414965
000300 de 72 08 3c a6 b4 40 3c 9b 00 11 3b 00 d9 b9 3a
       0.008328168 0.01176182 0.0022125605 0.0014179051
000310 37 d8 6e 3a e5 79 14 3c f4 0d b5 3b d4 c5 e6 38
       0.0009111198 0.009062265 0.005525345 0.00011004103
000320 58 8e a3 3b 43 2b 6a bb 7b 4e f5 ba 2f 85 1e 3c
       0.004991334 -0.0035731352 -0.0018715406 0.009675308
000330 fc f9 a4 3a 06 84 87 bb d2 a2 34 3c 3b f4 0c 3c
       0.0012586708 -0.0041356115 0.0110251475 0.008603151
000340 eb 98 c3 ba a9 df a6 ba 61 4b 0d 3c e4 24 b7 3a
       -0.0014922892 -0.0012731451 0.008623929 0.0013972786
000350 cd 63 4b 3c df f5 9b 3b 31 da e7 3a c1 5b 8f 3b
       0.012413931 0.0047595347 0.0017688927 0.0043749516
000360 36 67 9b b8 3e 9d 6d bc 1c 17 e1 3a 12 09 d9 b9
       -7.4102005e-05 -0.0145028215 0.0017173025 -0.00041396223
000370 8d 44 79 3b 6a a2 0f ba 4a 09 e8 3b 20 9d 02 3c
       0.0038035244 -0.00054792187 0.0070811855 0.007972032
000380 26 ed c1 bb 70 e4 35 3c 8f 82 0b 3c 62 29 b6 3b
       -0.005918163 0.011101827 0.008515014 0.0055591324
000390 81 1b 25 3b df a3 b1 ba de 84 07 bc 87 bb 17 bc
       0.0025193396 -0.0013552866 -0.008271424 -0.009261019
0003a0 e6 cb 7f 3b 7b 16 f5 ba f4 e1 42 3c a9 65 42 3c
       0.0039031445 -0.0018698716 0.011894692 0.011865058
0003b0 6f 6e a9 bb eb cb 00 ba 03 e0 20 bb 45 42 92 38
       -0.0051706354 -0.00049131986 -0.0024547584 6.974166e-05
0003c0 03 f6 05 ba 49 a6 12 3c 02 2d 22 bb 9e be cf 3b
       -0.0005110206 0.008950778 -0.0024746065 0.006339862
0003d0 3e 42 6b ba dc 4a f4 3b 2a ad 85 b9 75 e4 fe 3b
       -0.00089744094 0.007455213 -0.00025496754 0.007778699
0003e0 d1 a3 47 3b cf 43 71 bb 99 0c 1a bc 32 4f d5 bb
       0.0030462632 -0.0036814099 -0.009402418 -0.006509685
0003f0 b2 06 a7 3b d4 61 6e 3b 97 59 eb 3a 59 60 11 bc
       0.0050972337 0.0036374228 0.0017955777 -0.008873069
