saved_models/cnn-aug/2024-06-04_23-12-37.pt (torch, 548512 bytes, 9 tensors)

module.0.weight f4 [32, 3, 7, 7]
00000000: 5e48 8b3d 98ef 103d 1cc5 2a3d b5ac 213d
00000010: 0baa 98bb 82d6 fe3c 2750 143d b41d d03b
00000020: eecb c33c 0c90 453c 18a7 40bd 6284 a2bd
00000030: 979d 86bd bbf8 d73c eac6 a33d 6a6a 11bd
00000040: af00 c93c 4ca6 523d 6868 16bd 0565 90bc
00000050: 2588 873c 24ef ae3d 7b0f 5fbc 4dd9 79bd
00000060: 49cc 903c 077c 62bd 566c 0fbd 5f57 59bd
00000070: 02e8 ad3c ab57 6fbd 8135 a53d ca5f 17bd
00000080: c87a 053b e196 8cbd ab45 2d3d 72b9 f73c
00000090: 8030 a03d 6811 5bb9 b29b d9ba cf24 2fbd
000000a0: 106e 2e3d 1274 3c3b 0a73 a43d 06fc 7d3d
000000b0: def5 a03d bd30 6bbc 42d0 fa3c 00b5 353b
000000c0: e371 37bd 7e9d 273d 17b1 a93d 31a9 bf3c
000000d0: 94f0 a53c 19c8 a5ba 3d1f 69bd 9e15 6cbc
000000e0: 3e28 28bc 3ea0 59bd f242 afbc ebca 32bd
000000f0: ce87 06bd 66ba 20bb 8c37 a13c ca39 5cbd
00000100: 1b73 01bd 3ae7 f63c 8cc1 25bd ff53 d23c
00000110: e1a4 90bc 498a b5bc 8ecc 693d 905b 853c
00000120: cf23 1bbd ffd1 8d3d 1376 22bb d2c2 6cbd
00000130: 57e0 5cbd 93ae 6c3c 171d 3c3d 5c33 073c
00000140: bf57 63bd cf21 983d 377e 573c e74d fc3b
00000150: 01b9 8bbd 0906 9e3d 5cab f5bb 7a91 45bd
00000160: 7fad 43bd 2375 e6bc 7274 dfbc 06bd 8d3d
00000170: e781 ad3d b37d ad3d 879f c1bc aded 2c3d
00000180: 2e1e 83bd 0e36 28bc 7b59 56bb e461 ad3d
00000190: 50d5 5fbd 3416 81bd 2227 8dbc f751 79bd
000001a0: d052 e5bc ade8 003d 2402 893c e760 97bd
000001b0: e1d5 ee3b 6161 963d d724 133d aa2a 483d
000001c0: c085 443d b848 a1bd 7877 05bd f105 9bbd
000001d0: 6ab1 a9bd 0214 5ebd 717c 8fbd 114a 00bd
000001e0: 7790 3cbd 3c21 d4bc 55da 073d f03d 90bd
000001f0: 7d88 f3bc 3d40 55bd 32b2 4d3d ac39 ea3c
00000200: 4732 0a3c e4a6 873d e4bb 39bc 1762 dc3c
00000210: 8632 06bd 881a 79bd 43e5 3ebd 326b 073d
00000220: 7be3 4e3d 7642 7dbd 4f13 15b9 60ec d53c
00000230: 01f1 5d3d dc0c 913d b145 76bd 18f8 003b
00000240: 38af df3b 9d33 77bd 41df 553d 1124 18bd
00000250: 9a57 6b3d 0560 93bd 45f6 3a3d c20d 50bd
00000260: cd44 b4bc d82f 5bbd 016c 563d c916 adbd
00000270: ced3 e6bc 975f 0d3d d22e 2ebc 1c3e ce3c
00000280: 817d a43d 0c06 b4bc 3460 a4bd 10ee 613d
00000290: 4e7d e6bc 6ad4 083d 59de 8ebd c6ac 91bd
000002a0: ce98 fbbb d81b b8bd 3e14 6e3d ac0d 11bd
000002b0: 0a7a 7d3d 8b28 9d3d 754b 21bc 9c27 92bd
000002c0: 67c8 3e3d f2a2 4abd a436 11bd bcb4 7a3d
000002d0: 4af9 4cbd b5b9 4b3d a641 273a c61d 8ebd
000002e0: 53d2 8cbd 2d41 f0bb a19c 753c 6b09 503d
000002f0: 9b1c 8fbd 0787 c43c 8856 b23d caf1 39bd
00000300: d91a d4bb 599e af3c 751a 9cbd 9521 783d
00000310: 0026 203d b8f7 28bc ca37 7d3d 7d11 4c3d
00000320: b8af 913c 6e64 973d f2e5 2b3d 7681 bfbd
00000330: ba2e 9dbd d619 3cbd 9124 fabb bb68 dfbc
00000340: c6c0 ac3d 6cf6 9b3d d18d 72bd 092a 85bd
00000350: ad89 8cbd cbac d33c 2a42 bbbc 43c6 4dba
00000360: 6d10 413d bc56 db3b e66c 8abd f37a 023c
00000370: 363f 74bd 2abc 293d 23f1 663d eb33 683d
00000380: df19 7ebd 431b 883d cadc cabb db2b 89bd
00000390: 28f4 b53d 9f2b 603d eb97 423d 1892 0cbd
000003a0: d509 593d 0b71 763c 303d 9a3c 36ab b33d
000003b0: 3f33 a03d 3a5e 19bc 959f 5f3d 8b83 cebc
000003c0: 05bf 883d af66 883d d8a1 d43c 977e 2f3d
000003d0: f68e 133d 3962 a7bb d2b9 acbd da27 3abd
000003e0: d926 ecbc 9e73 98bc d067 8d3d 05e5 3c3d
000003f0: 95f1 913c 3580 77bc a208 3e3b 46da 853d
0.06800912 0.035384744 0.041691884 0.039471347 -0.0046589426 0.031108145 0.03620925 0.006351197
0.023900952 0.012058269 -0.047034353 -0.07935406 -0.065730266 0.026363721 0.07996924 -0.035501875
0.024536459 0.051428124 -0.036720663 -0.017626295 0.016544411 0.08541706 -0.013614531 -0.06099825
0.017675536 -0.055294063 -0.035015427 -0.05306184 0.021228794 -0.058433216 0.08066846 -0.036956586
0.0020367373 -0.06864715 0.04230277 0.030239794 0.07821751 -0.00020891952 -0.0016602187 -0.042759713
0.042585433 0.0028755707 0.080297545 0.062007926 0.078593954 -0.014354882 0.030616883 0.0027726293
-0.044786345 0.04092168 0.0828573 0.023396106 0.020256318 -0.0012648135 -0.056914557 -0.014409451
-0.010263501 -0.053131334 -0.021394227 -0.04365055 -0.032844357 -0.0024525165 0.019679807 -0.05376605
-0.031603914 0.030139554 -0.040467784 0.025674818 -0.017656745 -0.022160666 0.057079844 0.016279012
-0.037875947 0.06924819 -0.0024789616 -0.057802983 -0.053924885 0.014445919 0.04592618 0.008251991
-0.055503603 0.074283235 0.013152651 0.0076997164 -0.06822396 0.07715995 -0.0074972343 -0.04823444
-0.04777288 -0.028132027 -0.027277205 0.06920819 0.084720425 0.08471241 -0.023635639 0.042218853
-0.06402241 -0.010266794 -0.0032707143 0.08465937 -0.05464679 -0.06303063 -0.017230574 -0.060869183
-0.02799359 0.031471897 0.016724654 -0.073915295 0.00728868 0.07342792 0.035923805 0.048868813
0.047979116 -0.07875198 -0.032584637 -0.075694926 -0.08285792 -0.0542183 -0.07006157 -0.031320635
-0.04603621 -0.025894754 0.033167202 -0.07043064 -0.029728169 -0.052063216 0.05021877 0.028591953
0.008434839 0.06623629 -0.0113363005 0.026902242 -0.032763027 -0.060816318 -0.04660536 0.033061214
0.05050991 -0.06183096 -0.0001421694 0.026113689 0.054184917 0.07082531 -0.060125057 0.0019679125
0.0068263076 -0.060351957 0.052214865 -0.03714377 0.05745659 -0.07196049 0.045645017 -0.05079437
-0.022005463 -0.053512424 0.052349094 -0.084516115 -0.028177168 0.03451499 -0.01063128 0.0251761
0.080317505 -0.02197554 -0.08026162 0.055158675 -0.028135922 0.0334057 -0.06976003 -0.07113032
-0.007678128 -0.08989686 0.058124773 -0.03541343 0.061883964 0.076737486 -0.0098446505 -0.07136461
0.046577837 -0.049471803 -0.0354525 0.061207518 -0.050042428 0.04973765 0.0006380327 -0.069392726
-0.06876054 -0.0073319883 0.0149909565 0.05079023 -0.06987878 0.023990167 0.08707911 -0.045396604
-0.006472927 0.02143781 -0.07622234 0.0605789 0.03909874 -0.010312967 0.061820783 0.049821366
0.017783985 0.07392202 0.04196734 -0.093508646 -0.07674928 -0.045923077 -0.0076337536 -0.027271619
0.08435206 0.076153606 -0.059217278 -0.06502158 -0.06862197 0.02583923 -0.022858698 -0.00078496727
0.047134805 0.006693689 -0.06759052 0.007963884 -0.059630595 0.041439213 0.05638231 0.056690138
-0.06203639 0.06645825 -0.006190871 -0.06697818 0.0888446 0.0547291 0.04750816 -0.034319013
0.052987892 0.0150416 0.018828005 0.0877289 0.078222744 -0.009360844 0.05459555 -0.025209209
0.06677059 0.0666021 0.02595608 0.042845335 0.03602501 -0.0051081446 -0.0843388 -0.04544816
-0.028827118 -0.018609818 0.06904566 0.046116848 0.01781539 -0.0151062505 0.0028996845 0.06535773

module.0.bias f4 [32]
00000000: 6afd aa3d 53b6 acbc d4b9 16bd a2f6 dc3c
00000010: b0db da3c c7a4 bfbc a96d 443d 2659 443c
00000020: e236 b3ba 618f 82bd 8446 be3c 468b 12bd
00000030: 7dc0 113d 1a2c 883d 98c6 013d 98c7 453d
00000040: f142 9d3d 9318 533d 10ab a53c b5a2 dbbc
00000050: 77c0 713d 287f a63d 6acf c13c 858d a03d
00000060: b282 b83c 9b12 93bd 6e3c 3fbd 8489 9ebb
00000070: ea2f 6ebc a3ef be3d 0855 c33c 7ae1 e4bb
0.08349116 -0.021083033 -0.036798313 0.026973072 0.026716083 -0.023394002 0.047956143 0.011984145
-0.0013672973 -0.063750036 0.023226984 -0.035777353 0.03558396 0.06649037 0.031683534 0.04828605
0.07678784 0.051537108 0.02022317 -0.026810983 0.05902144 0.08129722 0.023658473 0.07839493
0.022523258 -0.07181283 -0.04668849 -0.0048381705 -0.014537791 0.09323051 0.023844257 -0.0069848867

module.3.weight f4 [64, 32, 3, 3]
00000000: 40f4 26bd 8fe6 26bd 29f1 b43b b5ae ae3b
00000010: 5742 5a3d 9100 7d3c b5d9 563d f649 38bd
00000020: 0bf9 85bd 5858 bdbb c92b 0abd c92e 433d
00000030: 136e 85ba 0982 9f3c c7d4 ab3c 3bd9 c4bb
00000040: 7082 573c 97c1 e1bc 77ee 023c d23c 8dbc
00000050: 12e0 82bc 06ed 91bd 7959 37bd ee85 6abd
00000060: e33b 8bbd 8804 60bd 6d73 4abd ac21 75bc
00000070: d437 6bbd 9257 61bd ba65 b9bc cb20 823c
00000080: afb0 62bb 2522 a2bc 33c4 c1bc 3182 88bd
00000090: c773 63bd 7f6f 2bbd 8817 3e3c f836 3c3c
000000a0: c985 043d 470f d0bc 4a3a 7dbd 8985 283d
000000b0: 17f1 503b fe25 3d3d 6f05 0abd f77d 433d
000000c0: 540f 80bb 594b f73c a01b 313d 2eee a5ba
000000d0: 7e58 5bbd 05a8 53bd 0d6b a23d 8fed 0f3d
000000e0: 228b e03c ae84 a43d 9bda 2bbc bb6c e6bc
000000f0: 1272 e73c 7a59 68bd 4802 89bd a005 74bc
00000100: e899 d43c a77b dcbb 6d38 173d c43c 08bc
00000110: bf3a dbbc 2511 3d3d 7ddb 93bc 73d9 c63c
00000120: 318f 15bb 5ec1 f9bc cbb6 ad3c 9777 52bd
00000130: ed69 c1bc 3a7c 8dbc 58c4 0abd 5c40 84bc
00000140: a589 a53b da03 b23c 8f01 443d 3c6a b93c
00000150: 068f c43c b313 a83c 50c9 843c f00f 67bd
00000160: fbb1 b2bb 2949 4ebd 74a5 3e3c b7c7 263c
00000170: a8c5 57bd 99f2 3abd a36f 67bd 0ac7 f53b
00000180: 4a91 bd3c 9a27 be3c 9289 7dbd 5957 cabc
00000190: cdad bb3c 7b3b 4b3d f44b 353d 2749 963b
000001a0: ec09 0abd 4910 073d 1685 2d3d ab6c 91bc
000001b0: 91bf 49bd 2b92 71bc 4592 803c 9547 23bd
000001c0: 5d92 f53c ded0 d93c 1e16 5e3d 34d3 06bd
000001d0: 325f 403d a10e 53bd c745 bbbc 9053 e6bc
000001e0: 3397 49bd 73fe 723c 1668 383b 4924 72bc
000001f0: 975a bfbc b39f 543d e599 7dbc 6725 5cbd
00000200: 8e30 b2bc 96f7 50bd 4c61 5c3c c537 21bd
00000210: 671c 353d 8155 05bd a100 003d 59ab 34bd
00000220: fa35 b63c 79cf b93c e5ef 823d 2921 c7bc
00000230: 17b4 dd36 3228 413d 5b4a 403d 9647 5a3d
00000240: cc59 253d 1b9b 69bd 6134 723d 6c5d bdbb
00000250: 8c44 4b3d 9953 683d a1f5 1b3d 23ee e53c
00000260: 8b63 ed3c 5a26 45bc 3f9d 883d 0441 eb3c
00000270: 7cc2 483c 1617 343c fa90 8a3d 587a aebb
00000280: 58fa e3bc ea80 1b3d b439 a5bc efbd adbc
00000290: ba1b 55bc a211 933c 9899 133d 170e a43c
000002a0: ee21 dcbc 0234 cf3c cacc 32bd ae08 7dbc
000002b0: 3a2e 6d39 fc49 73bd 735a 823d b8b6 47bc
000002c0: affd b4bc 2fce 833d 825f fc3c 62c4 91bd
000002d0: 5e38 d63c da78 a2bc 9634 8a3b b6bd 59bd
000002e0: c758 a9bb 78b0 b33c ec3f 29bb 4e90 763c
000002f0: 1a67 e63c fd89 153d 05d9 97bd be0d b9bc
00000300: 7496 26bd 705f 15bd a474 bbbc 3214 62bd
00000310: a54d 60bd aa9b 80bb 7a9b 853c dde2 d43c
00000320: b844 2bbd 9183 debb a717 4cbd a4bc 933c
00000330: cc4d 8cbc 3984 79bd 81a3 d13c bdda 243d
00000340: fea4 2bbd c69a 88bd b95f 0ebb 4788 2f39
00000350: 9f12 4ebd 40d7 6b3d 3725 f2bc 11cf 62bd
00000360: 8628 293d 78f6 013c 7ef5 a9bc 1270 273d
00000370: 4072 8c3c 18f8 2dbd 2a0f 443c 36e6 523d
00000380: 7135 0bbc 32bf b0bc 328d 32bc def2 ac3c
00000390: 4577 3c3d 36b2 a4bc 7bd3 f6bc 896b 17bd
000003a0: eacb 0c3d c7ed 3bbc 5dd7 87bd db17 413d
000003b0: 3243 823d fe98 0b3b 43de 52bc 5e05 10bc
000003c0: 8b31 49bd 24f7 30bd d874 103d 03c6 8dbc
000003d0: 72ab b6bc d081 183d 3857 3d3d a98a d53c
000003e0: 6aac b73b 1d4c 853c 5b45 04bd 186a 08bd
000003f0: ab97 e8bc dba3 873c e074 afbc 79e7 7abc
-0.04076028 -0.04074722 0.0055219126 0.0053308853 0.053285923 0.01544203 0.052453715 -0.04499241
-0.06541642 -0.0057783537 -0.033733163 0.04765204 -0.0010179899 0.019471185 0.020975484 -0.006007341
0.013153657 -0.027558131 0.007991425 -0.017240915 -0.015975986 -0.07125287 -0.044763062 -0.05725663
-0.06798532 -0.05469182 -0.049426485 -0.014961641 -0.05742629 -0.055015154 -0.022631515 0.015884778
-0.0034590175 -0.019791672 -0.023653125 -0.06665457 -0.055530336 -0.041854378 0.01160229 0.011487715
0.03235415 -0.02539791 -0.061823167 0.041142974 0.0031881982 0.04617881 -0.033696588 0.04772755
-0.0039080773 0.030187296 0.043239236 -0.0012659484 -0.05355119 -0.051673908 0.079305746 0.035138663
0.027410094 0.08033119 -0.010489131 -0.028128019 0.028252635 -0.056725956 -0.06689888 -0.014893919
0.025952294 -0.0067286077 0.036919046 -0.008315269 -0.02676141 0.04615893 -0.018048996 0.02427361
-0.0022820944 -0.030487712 0.021205327 -0.05138358 -0.02361008 -0.01727115 -0.033878654 -0.01614397
0.005051809 0.021730352 0.04785305 0.022633664 0.02399398 0.020517206 0.016209275 -0.056411684
-0.005453346 -0.05036274 0.011636127 0.010179452 -0.052678734 -0.045641515 -0.05650295 0.007500534
0.023140568 0.023212243 -0.061898775 -0.024699854 0.022910023 0.049617272 0.044261888 0.004586357
-0.03370087 0.032974515 0.04236325 -0.017752012 -0.049254958 -0.014744322 0.015694747 -0.039863188
0.029977018 0.026588853 0.05422031 -0.032916263 0.046965785 -0.051527623 -0.02286042 -0.028116018
-0.04921646 0.014831173 0.0028138212 -0.014779159 -0.023358626 0.051910114 -0.015478586 -0.053746607
-0.021751668 -0.051017366 0.013450932 -0.039359827 0.04421654 -0.032552246 0.0312506 -0.044108722
0.022242535 0.022681938 0.063934125 -0.024307804 6.6072785e-06 0.047157474 0.04694591 0.053290926
0.04036884 -0.057032686 0.059131984 -0.005778959 0.04962592 0.05672035 0.038076047 0.028067654
0.02897813 -0.0120330695 0.06670617 0.028717525 0.0122534 0.010991832 0.06765933 -0.005324643
-0.027829334 0.03796474 -0.020169117 -0.021208731 -0.013007099 0.017952744 0.03603515 0.02002625
-0.026871648 0.025293354 -0.043652333 -0.015443964 0.00022619302 -0.05939673 0.06364908 -0.01218956
-0.022093622 0.06435811 0.03080726 -0.07117535 0.026149925 -0.019833017 0.0042176945 -0.053159438
-0.005168054 0.021934733 -0.0025825454 0.015049053 0.028125335 0.03650855 -0.0741444 -0.02258956
-0.040670827 -0.03646797 -0.022882767 -0.05519504 -0.054761548 -0.0039248066 0.016309489 0.025987083
-0.041813582 -0.0067905863 -0.049827244 0.018034287 -0.01712694 -0.060917113 0.02559066 0.040247668
-0.041905396 -0.06670146 -0.0021724536 0.00016740068 -0.050310727 0.057578325 -0.029558761 -0.055373255
0.04129841 0.007932298 -0.020746943 0.040878363 0.017144322 -0.04247293 0.011966506 0.051489078
-0.008496628 -0.021575544 -0.010897921 0.021111902 0.04601218 -0.020104509 -0.030130139 -0.036967788
0.034374155 -0.011470265 -0.06632874 0.04714189 0.06360473 0.0021300907 -0.012870374 -0.008790342
-0.049119513 -0.04320444 0.03526768 -0.017306333 -0.022298548 0.037233174 0.046225756 0.026067095
0.00560527 0.016271645 -0.032292705 -0.033304304 -0.028392633 0.016557625 -0.021418035 -0.015313976

module.3.bias f4 [64]
00000000: 3c5c 76bc 0ccc 46bd eb8e dbbc d88f 513c
00000010: 90a5 15bc 709a 03bd 49ce af3c 4bc9 973c
00000020: e5a1 f6bc a7a6 b5bc 3869 953d e869 14bd
00000030: 4a8d 32bc d04c 8c3c f957 1f3c 81f1 91bb
00000040: a279 50bc f721 143d 1873 54bc 0526 c2bc
00000050: ee52 9eb9 591a 633d f342 9a3d bbcd 3ebb
00000060: 6bce 963c 1476 a23d dc53 eebc 6b2a 983d
00000070: 8971 1b3d 2d05 90bd 9a64 49bd 24e5 69bd
00000080: 1a89 8f3b e369 32bc f192 ad3d 0c86 a13b
00000090: 49ed 363d facf b93c e721 423d 1013 413d
000000a0: 0911 fa3b ffd3 11bd 2069 413d 643c 35bd
000000b0: 97a0 4e3c 270e c23d 92c1 02bd e3bd f63c
000000c0: 0548 223d 2313 4a3d 14a1 5b3a bf82 b2bb
000000d0: da2e 4d3d b21b 8abd 2839 063d 873f b6bc
000000e0: 603e ffbc 1b7b 28bd b840 a139 495d c9bc
000000f0: 8372 0fbd 5236 723d 84ea dcbc f466 8d3c
-0.015036639 -0.048534438 -0.026801547 0.012790643 -0.009133711 -0.032129705 0.02146067 0.018528601
-0.030106494 -0.022174193 0.072954595 -0.036233813 -0.010897944 0.01712647 0.009725564 -0.0044538383
-0.012724312 0.036165204 -0.012966894 -0.02369977 -0.00030197896 0.05544505 0.07532301 -0.0029114324
0.018408975 0.07932678 -0.029092722 0.074299656 0.037950072 -0.07032237 -0.049168207 -0.05710329
0.0043803575 -0.010889503 0.084752925 0.0049293097 0.044659887 0.022682179 0.047395613 0.04713732
0.0076314253 -0.035602566 0.047219396 -0.044247046 0.01261153 0.094753556 -0.031922884 0.030119842
0.039619464 0.049334656 0.00083781895 -0.005447715 0.05009351 -0.06743564 0.032769352 -0.02224709
-0.031157672 -0.041133028 0.00030756532 -0.024580615 -0.035021316 0.059133835 -0.026967295 0.017261006

module.7.weight f4 [64, 64, 3, 3]
00000000: 65a1 b4bb ef5e 04bc 894c aabc 6045 78bb
00000010: 952a 0a3d 925f b13c a9ad 893c f19e 33bc
00000020: e2c3 da3c d0eb 9f3c aa25 99bb 4d19 423d
00000030: a056 883c fd11 14bd 390b e9bc e3bb cbbc
00000040: a351 f63c 2cab 553c 85df 94bb 8222 ffbb
00000050: bfb0 af3c ba13 943b 6e76 06bc 7f20 3dbd
00000060: 236a 7dbc 963a fcbc 5c8b d33c 550a 513d
00000070: 722f 2b3c d367 49bd a784 103d a6b6 0ebd
00000080: 07d6 42bd aff0 29bc 3707 0dbc b9dd a23c
00000090: 9035 16bd c221 9cbc 8552 0bbd 2304 febc
000000a0: 1e27 6bbc c82e 143d fbe3 c53b 0a13 ef3b
000000b0: aa91 a1bc 4a53 e63b 8562 033d 4aad d6bc
000000c0: a9cf c33c 9c5c 67bc 06ad 83bb 82e5 ccbc
000000d0: 7502 48bc b614 e53c acdc 15bd e86b 9bbc
000000e0: 72fe 42bc d6e4 1c3c fedd 3abd 2e4d 1fbd
000000f0: fd30 363c 4b33 2fbd 560e d2bc cbb6 d63c
00000100: 08cc 5b3b 9ff3 18bd 764d df3b 923a 9cbc
00000110: ff99 66ba 1a0b a23c e4c1 8b3c 2255 46bc
00000120: f7ae c53c 0e1a 16bc bb6e 063c 9cdf b83c
00000130: 7aa4 b0bc 11e6 d5bb cc3e a2bb 1a48 a7bc
00000140: 5637 d93c 58fa fcbc 5502 473d 029f 013d
00000150: 6260 153d 9fba 29bc 8b62 d93c 8458 d7bc
00000160: aa85 f0bc 17a5 29bc c4a7 f33c 8009 18bc
00000170: d3f8 8d3b 5a27 4cbc 4787 e23b e1b9 15bd
00000180: d304 053c 41d5 b83c 094d 013c adef 2e3c
00000190: 76e2 143c 2a1b fdbc 2545 0dbd 3046 19bd
000001a0: 58e6 193a 08c7 0e3c 6834 2dbc dd63 013c
000001b0: 5f0e 063d 1639 3dbd 8c39 24bd 4056 23b9
000001c0: 99d8 073d b1b1 04bd 1cab 363b c878 023c
000001d0: 5adc dd3c 5ee8 bb3a 910f c03c 1078 fe3b
000001e0: 8f4a 8b3c 3d8d 0b3d e57e 92ba 2fff 7fbc
000001f0: fd76 19bd 4878 fbbc 392b a6bc 00c1 9a3c
00000200: 1d43 1e3a 2f3b 9bbc 979e bc3c 9e0b 963b
00000210: 2b06 943c 2f21 053a 0b57 1cbc 02e6 973c
00000220: 4020 bf3c 3669 ce3c ade5 eabb eeb0 36bc
00000230: 715d 24bc 3f51 cf3c a076 24bd ec16 1f3a
00000240: b7c1 a63c 48c5 71bb 2056 8fbc 42eb debc
00000250: e4c2 d4bc ed5a 8fba e73e 7c3c f310 0ebc
00000260: 447b 963c 56ef b53c 4974 043c 7ed6 313d
00000270: ad0b 1b3d e628 603c 2257 45bc a8dc 13bb
00000280: 5952 b23c 30ea ed3c 580e 0ebd 15ae debc
00000290: dd12 d83c fa00 f53c b8dc 08bc 9854 1bbd
000002a0: 3c11 eebb a957 aa3c 84ea de3b 0ea2 5c3d
000002b0: 404d 123d c98d 51bb aebb fbbc 119d c83c
000002c0: 5c4e 2abb 269e 9cb7 f984 08bd 47af ef3c
000002d0: f8e3 623d dcc4 c83b 3fc5 0ebd d7ee d0bb
000002e0: a874 35bd b7ef 083d 145d c83c 6847 403c
000002f0: 3449 a43c 041c dfbc 1b04 013d df8d f3bc
00000300: 8fd3 163d 9c7b 40bd 3fb6 e2bc 078a f53c
00000310: fa2f 353a 8775 26bc fee1 d2bb 16b4 3f3c
00000320: b5b0 8c3c b402 f63c bdd3 0e3c 4444 6cbc
00000330: 7b29 963c dded 1f3d 802b 93bc 7f75 bfb9
00000340: a819 0c3d 749a 9dbc 0939 b3bc 75b8 53bd
00000350: 076e ee3c 7c0d 6d3c ad20 31bd 1c98 8cb9
00000360: 126c 573d 06bf 163c 2c19 dcbc 1cd1 9dbc
00000370: 534d 30bd 6cce 1bbd 7b67 1bbd 4e33 48ba
00000380: f86e da3c 1138 893c 17fa 223d 5050 f4bc
00000390: 8ae5 db3c 6ead d23c 1ffa c93b 8011 0ebd
000003a0: b4fa 1ebd b9e3 003b ca5c bcbc f05f 2b3d
000003b0: 532e 87ba ac32 25bc 0e31 e83b 354b e03b
000003c0: 6cac 3abc edc3 a2bc ce31 1fbc a52d c73c
000003d0: b5e7 aebc 09e1 32bc 1c59 993c 3dad 5bbd
000003e0: 1bba c53c 7cfc 5fbc 81cb 2fbc 0403 fc3b
000003f0: cd9e 1e3d 0c32 67bc a70c a3bc 14c8 8d3c
-0.005512404 -0.008079275 -0.020788448 -0.0037883148 0.033732016 0.021652017 0.01680644 -0.010963188
0.026704732 0.019521624 -0.0046736794 0.04738741 0.016642869 -0.036149967 -0.028447734 -0.024869865
0.030068224 0.013041299 -0.004543247 -0.007786096 0.021446584 0.004518953 -0.008206947 -0.04617357
-0.0154671995 -0.030789655 0.025823288 0.051035244 0.010448324 -0.04917128 0.035282757 -0.034842156
-0.047567394 -0.010372325 -0.008607677 0.019881116 -0.036672175 -0.019059066 -0.034014244 -0.031007832
-0.014352588 0.036177427 0.0060391403 0.007295971 -0.019722778 0.007028972 0.032076377 -0.026205678
0.023902731 -0.014121201 -0.0040184287 -0.025011782 -0.012207617 0.027963977 -0.036587402 -0.018972352
-0.011901485 0.009576043 -0.045621864 -0.038891964 0.011120078 -0.042773526 -0.025641602 0.02621021
0.003353836 -0.03734171 0.006814654 -0.019070897 -0.0008796751 0.019780684 0.017060228 -0.012105258
0.024131281 -0.009161485 0.008205111 0.022567563 -0.021562804 -0.00652767 -0.0049513336 -0.020420123
0.026515644 -0.030881092 0.04858621 0.031645782 0.03646887 -0.010359435 0.026536247 -0.026287325
-0.029360611 -0.010354302 0.029743083 -0.009279609 0.0043326407 -0.012460554 0.006913099 -0.03655422
0.008118826 0.022562625 0.007891902 0.01067726 0.009087196 -0.030896742 -0.03448977 -0.03742045
0.0005870811 0.008714445 -0.010571577 0.007897344 0.03272855 -0.04619702 -0.040093943 -0.00015577022
0.033165548 -0.032396022 0.0027872985 0.007963367 0.02708261 0.0014336219 0.023444923 0.0077657774
0.017003326 0.034070242 -0.0011176734 -0.015624805 -0.03746699 -0.030697003 -0.020284282 0.018890858
0.00060372223 -0.01894912 0.02302484 0.0045790216 0.018069347 0.0005078492 -0.009542237 0.018542293
0.023330808 0.025196653 -0.007168493 -0.011150582 -0.010032044 0.025307296 -0.040152192 0.0006068784
0.020356042 -0.003689127 -0.017497122 -0.027211789 -0.025971837 -0.0010937132 0.015395856 -0.008671033
0.018369325 0.02220885 0.008084365 0.043417446 0.03785293 0.013681626 -0.0120447 -0.0022561941
0.021767782 0.029042333 -0.034681648 -0.027182618 0.026376182 0.029907692 -0.008353405 -0.03792247
-0.007265238 0.020793753 0.006802859 0.053865485 0.035718203 -0.003197538 -0.030729141 0.024488958
-0.0025986647 -1.8670293e-05 -0.033329938 0.029258383 0.05539319 0.006126983 -0.034856077 -0.006376128
-0.044300705 0.033431735 0.024458446 0.011735775 0.020054437 -0.027235039 0.031498056 -0.029730735
0.03682285 -0.046992883 -0.027674792 0.029973043 0.0006911751 -0.010159857 -0.006435632 0.011700651
0.017174104 0.030030586 0.0087174745 -0.014420573 0.018330326 0.039045203 -0.017965078 -0.000365179
0.034204155 -0.019238688 -0.021877782 -0.051689584 0.0291052 0.014468547 -0.043244053 -0.0002681621
0.0525933 0.009200817 -0.026867472 -0.01926475 -0.043042492 -0.038038656 -0.037940484 -0.00076370395
0.026664242 0.016750367 0.039789286 -0.029823452 0.026842851 0.025717463 0.00616385 -0.034684658
-0.038813308 0.0019666983 -0.022993464 0.04183954 -0.0010313488 -0.010082882 0.007085926 0.006844903
-0.011393648 -0.019868815 -0.009716464 0.024313757 -0.02135072 -0.01091791 0.018719248 -0.05363201
0.024136594 -0.013671037 -0.010729671 0.007690789 0.038725663 -0.014111053 -0.019903494 0.017307319

module.7.bias f4 [64]
00000000: 9cf6 153c 291b 703d 7fd0 04bd 6473 043d
00000010: 5667 33bd aada a93b 3cba ce3c c042 a93a
00000020: 85bb 273d 49f3 9e3c f84d 7e3c 1d77 ce3c
00000030: 7c2c e9bb 74b9 29bc 1732 133c b375 d4bc
00000040: 18e8 d7bc a5ca a93c 086c cf3c 1019 123d
00000050: a79a b1bc 2623 5abd 87b4 57bc 33d6 3c3d
00000060: d2ff 953b 2ffb bb3c 3211 73bc a9c9 d5bc
00000070: 24df 103c db49 04bd 4ba5 4cbd 38cf 1ebd
00000080: 4b39 553d fc99 9dbb 93c1 483d 37d4 31bc
00000090: 4493 eabc ab62 20bd b977 c73c 3e10 593c
000000a0: eab0 b93c f260 323d b48f ce3c c1e9 aebb
000000b0: d70b 3bbc 5339 0a3d 8174 06bd 2b7f f5bc
000000c0: 642d 053d 49b9 bdbc 5765 8a3d 81b2 ee3c
000000d0: 1cde 8a3d 9f93 f63b 707d e2bc a245 873c
000000e0: 2477 20bc 2a5d 1e3c 9c30 bb3b 7d5c 44bd
000000f0: 96bd f7b9 1690 edbb 7164 eb3c a99e fcbc
0.009153035 0.058619652 -0.0324254 0.032336608 -0.04379972 0.0051835375 0.025235288 0.001291357
0.040950317 0.019403117 0.015521519 0.025203282 -0.0071158987 -0.010359157 0.00898411 -0.02593503
-0.026355788 0.020726511 0.025320068 0.035668433 -0.02168019 -0.053256176 -0.0131656 0.046102714
0.0045776153 0.022946922 -0.014835643 -0.026097136 0.008842263 -0.032296997 -0.049962323 -0.038771838
0.052056592 -0.004809616 0.04901273 -0.010853819 -0.028634675 -0.039156597 0.02434908 0.013248501
0.022667367 0.043549486 0.025215007 -0.005337924 -0.011416397 0.033746075 -0.03282595 -0.029967865
0.03251399 -0.02315964 0.0675761 0.029137852 0.06780645 0.007524922 -0.027647704 0.016512696
-0.00979403 0.009665767 0.005712582 -0.047939766 -0.00047252764 -0.0072498424 0.028734418 -0.030837374

module.10.weight f4 [128, 64, 3, 3]
00000000: a6e4 893c 0f2f b8bc 4fdb bcbc 3e8f b2bc
00000010: 9932 813c 379c 3a3d 25d3 a6bc d241 1c3d
00000020: b967 353c bb28 213d 4a72 b9bc 9d9d bfbc
00000030: 0908 683c dac8 96bb 78f7 a2bc 55f1 463c
00000040: 2c25 b7bc 7aa7 24bc 69db 893c 5919 003d
00000050: 51ea f2bb 4658 22bd e679 2dbd 9612 25bd
00000060: 74ac e2bc 59bc 0f3c 815f 573c 6a3f 333c
00000070: 4e88 303d d80e 373d b34e 30bd 5039 bb3c
00000080: a3e9 ff3c 4145 b1bc d4c6 4f3c 4d5c a13c
00000090: 7930 6cbc 144c 1fbd 3169 07bc dd24 36ba
000000a0: 6b70 bcb9 e77b 1abd 35ec 383c 40e8 163c
000000b0: 80e2 33bd 6fe2 17bb 536a 36bc b56b 203c
000000c0: 5447 e83c 80f1 d2bc 13b6 32bc 7004 ccbc
000000d0: a42d 0e3d e821 f93c b697 05bb 6607 9abc
000000e0: 73bf 9d3c 02af e4bc 6553 d0bc ba71 84ba
000000f0: 40e4 8d3b a97c d4bb e4b2 043d babc 23bc
00000100: a864 f7bc 703e ee3c 2832 36bb bf99 34bc
00000110: 3461 373d 7cef 0a3d 87c5 2a3d d764 97bc
00000120: 982f a13c a3b9 803c 97f4 063d 9445 d03c
00000130: 0f22 1e3c e512 883c c83c 11bd 396e 0ebc
00000140: 5dec 30bc 6cce 5bbb a256 4a3c d350 723c
00000150: e181 f5bc fbf8 38bc 1de9 533c ae5d 223d
00000160: 9091 b23c 7acd 0cbd 69c5 10bd ad0c c0bc
00000170: 68e7 1bbd a6ea 293d a27b 5abd e535 d53c
00000180: 17a5 b43b 421b 03bd baba 1c3d 0d2b f5bc
00000190: db93 e7bc 5815 253c 92ff 06bd 0a2f 193c
000001a0: 9dd5 c93c 2282 35bd 9c87 aa3c ba79 2f3d
000001b0: fcb0 b0bc b767 59bc d220 183d 79a2 8dbc
000001c0: 956e bbbc 4538 d53c 3175 8ebc 114b c4bc
000001d0: e10b a43c 8720 683b 56a2 893b cabe 943c
000001e0: 4d09 2b3d bb37 25bb c9fa d1bc bbb1 1e3d
000001f0: ecb7 68bd a435 cabc 95bd 493d 711b a5bc
00000200: 51a0 99bc 16b8 a9bc c22f a7bc 866f 0c3d
00000210: 3e64 cf3c b352 223d f770 09bd 02cc 43bc
00000220: daea a7bb 7e2a 0e3b 5860 12bc aad8 1d3c
00000230: 1d90 abbc 0eb2 e13c c19d e03c 859e 173d
00000240: 063a be3c 66bc ab3c 32fc 7ebc d06f dfbb
00000250: a847 cdbc 9391 afba d680 833b d0ac 09bd
00000260: e70b a7bb e841 e43c 030c 593c cc75 ccbc
00000270: 6d5e 523c 10df 80bc 6046 46bd 64fa 543c
00000280: b0ce 1ebc 5485 e5bc 14f3 cd3a ce34 29bd
00000290: 9346 8bbc df51 e53c de6a ddbc ac4e 3b3c
000002a0: 7991 52bb 10b7 17bd eb9a e83c db11 12bd
000002b0: 1fba 1cbd deac 3e3d 91e1 28bb 3918 02bd
000002c0: db1e cabb f124 3f3c 4b7d 403d a067 6f3c
000002d0: 351f 7abb 2fd2 acbc 6d92 ab3c 5b9c e4bb
000002e0: 410c 233d bff2 033d b1c1 22bc 3d80 1b3d
000002f0: 4f06 06bd 3d85 69b9 4364 07ba 5cdb f7bc
00000300: b80f 133d 5f25 1b3c acb1 bcbc 7498 d2bb
00000310: 84af 0ebd a3b9 38bd 29cc 693c d82d 0abd
00000320: 4aa9 053c fc3c adbc c2af 9cbb 99d5 833c
00000330: 661e 363c 07fe 843c e7a9 babc c6c8 ebbc
00000340: 32d3 21bd 95bd 00bd 3978 4e3c 9382 873b
00000350: ee0b 83bb 35b7 573c 24dd 393c fdfc d63c
00000360: c6e9 a4bc 9a0e c0bc 8b4f ddbc 1230 cd3c
00000370: d6e8 05bd 54c4 11bd 0c12 323d d24d a93c
00000380: b4ac b5bb 2890 3fbd 6a70 c6bb 47b7 523c
00000390: 2ad7 1a3d 1f41 a23c 150d 72bc d176 843c
000003a0: 01c7 dfbb cf1c 73bc adbb 2c3c a473 dcbc
000003b0: e677 9abc 6a33 fb3c 2a32 1bbd d7a2 53bd
000003c0: 9064 1cbd 830b a5bb bb0e da3a 0208 f5bc
000003d0: 0b4a d8bb 58a3 f7bc 4a91 943c 9690 9bbc
000003e0: a7c1 42bc 890d 173c b97e aa3c 0f11 37bc
000003f0: fc9a 0c3d b6e1 8bbb 9dad 343d a27f 843b
0.01683266 -0.022483377 -0.023053793 -0.021796819 0.015771197 0.045559134 -0.020364353 0.03814871
0.011072093 0.039345484 -0.022637505 -0.023390586 0.014162072 -0.00460158 -0.019893393 0.012142499
-0.022356592 -0.010049695 0.016828256 0.031274173 -0.0074131866 -0.039634965 -0.04235258 -0.040300928
-0.027670123 0.008772933 0.0131453285 0.010940412 0.04309874 0.04469189 -0.043043803 0.022854477
0.031239336 -0.021639468 0.012681682 0.019697333 -0.014415854 -0.038890913 -0.008264826 -0.0006948242
-0.00035941912 -0.03771582 0.011286785 0.009210646 -0.04391718 -0.0023175736 -0.011133748 0.009791304
0.028354324 -0.025749922 -0.010907668 -0.02490446 0.034711495 0.030411676 -0.0020384616 -0.018802356
0.01925633 -0.027915481 -0.02543039 -0.0010104694 0.004330188 -0.006484587 0.032397166 -0.009993726
-0.030199364 0.029082507 -0.0027800892 -0.011022984 0.044770434 0.033919796 0.041692283 -0.018480701
0.019676015 0.015713518 0.032948103 0.025423802 0.009651675 0.016610572 -0.035458356 -0.008693271
-0.010798541 -0.0033539785 0.012349756 0.014789778 -0.029969158 -0.01128983 0.0129339965 0.03964012
0.021797925 -0.034375645 -0.035344515 -0.023443544 -0.038062483 0.041483544 -0.05334056 0.026026675
0.0055128443 -0.032008417 0.038264014 -0.029927755 -0.028268745 0.0100758895 -0.032958575 0.009349594
0.024637992 -0.044313557 0.020816617 0.042840697 -0.021568768 -0.013269356 0.037140675 -0.017289387
-0.022879878 0.026027808 -0.017389866 -0.023961576 0.020025196 0.0035419778 0.00420026 0.018157382
0.041756917 -0.002521022 -0.025632279 0.038743716 -0.056816027 -0.024683781 0.049253065 -0.020154687
-0.018753203 -0.020717662 -0.020408515 0.034286045 0.025316354 0.03962965 -0.033554997 -0.011950495
-0.005124432 0.0021692808 -0.008934103 0.009634176 -0.020942742 0.027550723 0.027418973 0.03701641
0.023221027 0.020963859 -0.015563058 -0.006818749 -0.025058582 -0.0013394825 0.004013161 -0.033612072
-0.0050978544 0.027863458 0.013247493 -0.024958514 0.012839896 -0.015731364 -0.04840696 0.012999151
-0.009692833 -0.028017677 0.0015712702 -0.041310124 -0.017001426 0.02799314 -0.027028497 0.011432331
-0.0032130165 -0.037039816 0.028394183 -0.03566156 -0.038263436 0.046551578 -0.0025769214 -0.03176138
-0.006168229 0.011666522 0.04699449 0.0146121085 -0.0038165573 -0.021096317 0.020943845 -0.006976647
0.039806608 0.032213923 -0.009933875 0.037964094 -0.03272086 -0.00022270247 -0.00051647815 -0.030255966
0.035903662 0.009469359 -0.02303394 -0.0064268652 -0.034835353 -0.045098912 0.014269867 -0.033735126
0.008158037 -0.021147244 -0.004781694 0.016093062 0.011115646 0.01623441 -0.022786094 -0.02878226
-0.039508052 -0.0314308 0.0126019055 0.0041354387 -0.003999225 0.013166239 0.011344228 0.026243681
-0.020131003 -0.023444463 -0.027015468 0.025047336 -0.032692753 -0.035587624 0.043474242 0.02066699
-0.0055442695 -0.046768337 -0.0060558813 0.01286108 0.037802853 0.019806443 -0.014773627 0.016169937
-0.006829143 -0.0148384115 0.010542792 -0.02691061 -0.018856 0.030664165 -0.037889637 -0.051668968
-0.03818184 -0.0050367727 0.001663647 -0.029911045 -0.0066006235 -0.030229256 0.018135685 -0.018989842
-0.011886991 0.009219536 0.02081238 -0.011173501 0.034327492 -0.00426885 0.044110883 0.0040435353

module.10.bias f4 [128]
00000000: 60b6 483d 34a3 803c e45e 28bd b8e7 8fbc
00000010: ebae 1d3d dc03 fcbc e692 843c afd9 a1bb
00000020: 11a8 08bd cf3f 003d fcdd 80bc a0c3 453c
00000030: 5348 f73c beb3 23bb 9b78 43bd de3e dcbc
00000040: e03f c6bc eacb 4abd 2767 4839 3daf 96bc
00000050: 25fd 133c 337d 783d 0c11 b6ba 1dd7 e7bb
00000060: 98c1 003c 89ae 3abc 5541 e1bc 5e13 733c
00000070: e023 1abd 66a2 60bc 7c09 53bc 8324 d9bc
00000080: 3d46 163d caf0 acbb fb31 a93c f42c e13c
00000090: 8bc6 113d 9b37 063c 1377 5fbc da62 f23b
000000a0: d884 e4bc 30f6 cbbc 8f89 5cbc 5c16 003b
000000b0: d479 3d3d 369d 903c f9f2 4abc bc3b e8bb
000000c0: 197d 1dbd 91f0 4abc 7388 e03c 5acc 88bc
000000d0: eb76 373d d763 5c3d d543 883c cb16 cbbc
000000e0: 59cb 823c 7714 d2bb d66c ed3b 22f5 783d
000000f0: 31ea 39bd 3851 723c ffc2 2dbd 53b6 89bc
00000100: f9f5 0cbd cf6b c2bc 2477 e93c 1b42 45bd
00000110: 690c 433d 7f3e 0c3d bd34 8abc 887c ec3b
00000120: b45e d8bb 9b8c 743b 7173 f43c 3753 263d
00000130: 84ac 2d3d 425a 843c 5024 1bbc 8913 1dbd
00000140: 4203 1dbc 7fb1 4cbd 7ada 2a3d fd23 953c
00000150: 9796 393d a8f8 29bd 553e 4b3d 3ac3 c03c
00000160: 3843 0dbd 3526 0cbc 8786 fb3c d68f 52bc
00000170: cc8e 23bd 5d5e 6ebc 0e3c 00bd acd6 833c
00000180: b69f 06bd da08 57bd 4aa6 02bd deb7 b4bc
00000190: da60 c23c 118a c1bc 61a4 05bd 966c aebc
000001a0: 0db1 01bd bb15 e8bc 6582 cb3c 0914 363d
000001b0: 10eb 82bd f3f7 a9bc 0ede c4bc a4eb 0b3d
000001c0: 8752 293d 9eef 3dbd d51c e839 a653 53bc
000001d0: f2ed 5d3d afae 06bb e215 8a3c 5078 9cbc
000001e0: c06a 3f3d 6f10 0cbd b96b 003d 4234 923a
000001f0: d578 dc3c 0d8f b3bc 5754 4bbc 6710 7c3c
0.04900205 0.015702821 -0.04110612 -0.017566547 0.038496893 -0.030763559 0.016183328 -0.00493928
-0.033363406 0.031310853 -0.01573085 0.012070566 0.030185854 -0.002497896 -0.04772244 -0.026885446
-0.02420038 -0.049510874 0.00019111914 -0.018394107 0.009032522 0.060666274 -0.0013890578 -0.007075204
0.007858656 -0.0113941515 -0.027496973 0.0148361605 -0.03763187 -0.013710594 -0.012880679 -0.026506668
0.03668808 -0.0052777277 0.020653715 0.027487256 0.035589736 0.008191968 -0.013639229 0.007397038
-0.027895376 -0.024897665 -0.013460531 0.0019544577 0.046258762 0.017653089 -0.012387031 -0.007087199
-0.03844938 -0.012386457 0.027408814 -0.016699005 0.044791143 0.053806152 0.016633907 -0.024791142
0.015966104 -0.006411131 0.0072456403 0.060780652 -0.045389358 0.014789872 -0.04242229 -0.016810572
-0.034414265 -0.023733048 0.028499193 -0.048158746 0.047619257 0.03423929 -0.01687085 0.0072169937
-0.0066030864 0.0037315253 0.029840203 0.040606704 0.04240085 0.01615632 -0.009469107 -0.03834871
-0.009583296 -0.04997396 0.04171226 0.018205637 0.04530963 -0.041496903 0.04961999 0.023530591
-0.034487933 -0.008554031 0.030703796 -0.012851676 -0.039931104 -0.014548865 -0.031307273 0.016093574
-0.032867156 -0.052498676 -0.031896867 -0.022060331 0.023727823 -0.023625406 -0.032627467 -0.021292012
-0.03166299 -0.028330674 0.02484245 0.0444527 -0.06392491 -0.020748114 -0.024031665 0.03416027
0.04133847 -0.046371095 0.0004427197 -0.012898361 0.054182 -0.0020550897 0.016856138 -0.019100338
0.046732664 -0.03419536 0.031352732 0.001115449 0.026913086 -0.021918798 -0.012410245 0.01538477

module.15.weight f4 [1, 2048]
00000000: e1ea 963c dcde 0abc d0df e83c 9385 553c
00000010: 39fc 9fbc 3d47 00bc e28b b239 05e1 8c3c
00000020: d35f b23c 19e7 343b 5f4d 72bb 1b76 e0bc
00000030: 9b83 0b3d 57aa 02bb 5c63 ddbc 027b 87bb
00000040: e776 3e3c a2ab b8bc ffdf 3cbc e197 153c
00000050: c708 1cbc d989 743c 0c6a 033d 4116 0e3d
00000060: eafe 993c 0f42 02bd 4e8f 483b 02f2 9c3c
00000070: e2d9 a9bb 144f 933a 9f44 c8bc 2fc1 93bc
00000080: af92 bb3a 9fed 073c 7450 153c 106c 0a3c
00000090: ce98 283c 5c2c a4bc 4137 a03b a862 583b
000000a0: 97f3 1cbc bab1 f03c 7c34 533b 0383 193c
000000b0: 648c 3e3b 74fe 13bd 0224 06bc ae26 3b3c
000000c0: a9e0 be3b deeb c3bb a104 b0bc 3aee 88bb
000000d0: 191c 263c f61e 5dbc 87bf 223c a1bb 7abc
000000e0: 579e f73b e8ae d03c 7757 e83c 40c7 2f3c
000000f0: 2e6b 9bb9 8557 5eba 92b0 4abc fc82 38bc
00000100: 1721 ed3b 68be 7cbc 2dd7 0dbc d861 c13b
00000110: 25f2 8abc 8a5b 04bc b9c9 f03c aca3 71bb
00000120: bd5f b1bc d390 cfbc add6 153d 1eb7 60ba
00000130: 4b4f b03b 65a4 3bbc 54e0 02bb 9b21 213c
00000140: 88b1 01bc 5e00 8ebc d4af 94bc f893 46bc
00000150: 0bad 90bb 7e00 893b 0648 ac3c 3de6 a13b
00000160: 15e7 0cbc bdb1 853c a333 313d 64a8 86bb
00000170: 5b3b 86bc 9740 103c 0eac 2ebb 425c 223c
00000180: b8a7 3b3c 7ad2 c53a 43c0 1bbc 6d89 22bc
00000190: bb33 f8bb e0b9 24b8 52d2 93bc 9298 5d3c
000001a0: ac54 d6bc ff22 4bbb 1bdd 783c 1f75 fdbc
000001b0: 674d 22bb 4b6f 033d cf5e b63c cf15 553c
000001c0: c69c 84bb 01b9 2abb 7bd2 61bc c6bb d738
000001d0: 06db 153d 3eed bf3b aa3f f3bb bd5d a9bc
000001e0: 25ba e63b 2694 1c3c 7d44 bebc 52f0 3c3d
000001f0: a63a 31bc ce4b dcbc 4f49 723c 1671 013d
00000200: 47e7 1cbc a91c 0238 77e8 a0bc 2228 a6bb
00000210: 4a3d f53b 6f94 9b3b b15a 083c 31bb b83c
00000220: 09e2 f3bb 4d97 bd3c aaca 9e3c 0465 863c
00000230: 1dd3 8bbc 5560 90bb 6c7d 5f3c 405b 24bc
00000240: 3971 643c 9f2c 0e3c fc36 593c 41f9 823a
00000250: 0559 733c f8c9 eabc 867e 91bc 5f55 9d3c
00000260: 3ba7 5a3c 1c18 75bc f7bb b539 33bc 8bbc
00000270: d1d0 bc3c 4706 823c 7ff8 0cba 582e 2d3b
00000280: 35ea a8bc 5e27 47bb 0115 0d3c e8f1 b2bc
00000290: a1f5 d53b 324a 92bc 2b44 e63c fd17 b73c
000002a0: 12e7 90bb 6a17 593c 0f90 48bb 5831 3a3c
000002b0: be69 c1ba a848 d03c 0b6c 27bc 33d1 68bc
000002c0: 03f1 8b38 cd61 1c3d d148 ad3c 7a3b 083c
000002d0: a79f 39bc f588 15bc c321 50bc 1241 7e3c
000002e0: 6b1e af3c a911 98bc 4d24 6dbc d76a 98bc
000002f0: 61b7 8dbc 0960 9b3c 4d26 0c3d 73d7 0c3b
00000300: 14b2 cb3c a249 873c 78c3 723c c6cd f23a
00000310: f911 10bc 4427 15bd 7d0a 293b 5c9f 333b
00000320: d734 87bc 969a a8bc 689d 9bbc 09ba b3bc
00000330: e214 103c 33a1 5d3c 9fd8 253d 9cea a43c
00000340: ee0e a53c be43 f13c 475e c73c b2db a13b
00000350: c69e 003d 3cd9 123c bb6d 3d3c c8d6 74bc
00000360: c703 e3bc ec76 c3bc 0e2a 17bd 6276 083b
00000370: f718 fe3b 185a 8abc 6691 bbba 1c6f f53b
00000380: dbac a23c 57a0 113c f992 533a 415e 99bc
00000390: 68d6 41bc 068c 083c 658b b8bb 7fe5 b6bc
000003a0: ef14 503b c9b7 063c a92a 123d 5eb9 d43a
000003b0: fc24 8abc aecb ebbb 8cfa 6f3c 6d27 d6ba
000003c0: c96b efbb ec22 103d 4683 273c f0f8 a03b
000003d0: e2bf 23bc 9a55 883b a899 68b9 8324 0ebd
000003e0: da60 ffbb 3070 633c 7266 993c 5f9d ccbc
000003f0: 7580 113c e209 61ba a767 453c bba3 a93c
0.018422546 -0.008475985 0.028427035 0.013032335 -0.019529449 -0.0078294845 0.00034055026 0.017197141
0.021774208 0.0027603565 -0.0036972386 -0.027400067 0.034061056 -0.0019937956 -0.027024917 -0.0041345367
0.011625028 -0.022542778 -0.011528014 0.009130449 -0.009523577 0.014925444 0.032083556 0.03468919
0.01879831 -0.03180128 0.0030602994 0.019158367 -0.0051834444 0.0011238777 -0.024446784 -0.018036453
0.0014310683 0.008296399 0.00911342 0.008448616 0.010290338 -0.020040683 0.0048893993 0.0033017788
-0.009579561 0.029381622 0.0032227328 0.0093696145 0.0029075379 -0.036131337 -0.008187296 0.011422796
0.0058251214 -0.0059790453 -0.021486582 -0.0041787894 0.010138535 -0.013496151 0.009933359 -0.015303523
0.0075567174 0.025474027 0.028362019 0.010728657 -0.0002964376 -0.00084816694 -0.012371199 -0.011261698
0.0072366106 -0.015426256 -0.008657259 0.0059015565 -0.016961167 -0.008078465 0.029393064 -0.0036871238
-0.021652097 -0.025337612 0.036581684 -0.00085722085 0.005380546 -0.011452769 -0.0019970136 0.009834672
-0.007915862 -0.01733416 -0.018150248 -0.012120239 -0.0044151596 0.004180967 0.021030437 0.0049407766
-0.008600016 0.016320104 0.043262135 -0.004109429 -0.016385725 0.008804462 -0.0026652846 0.009909691
0.0114535615 0.0015092634 -0.009506288 -0.00992046 -0.007574526 -3.9273757e-05 -0.018044624 0.013525145
-0.026163422 -0.00309962 0.015189434 -0.030939637 -0.0024765374 0.03208856 0.022262005 0.013005688
-0.004047009 -0.0026050212 -0.013783093 0.000102869744 0.03658583 0.005857139 -0.007423361 -0.02067458
0.007041233 0.009556806 -0.023226017 0.046127625 -0.0108172055 -0.026891615 0.014787986 0.031601988
-0.009576625 3.1021107e-05 -0.019642098 -0.005070702 0.007484113 0.0047479193 0.008322404 0.022550197
-0.007442717 0.023143435 0.019383747 0.01640559 -0.01706844 -0.004406015 0.013640743 -0.010031521
0.01394301 0.008677631 0.013257738 0.0009992496 0.014852767 -0.02866076 -0.017760526 0.019205747
0.013345535 -0.014959361 0.00034663055 -0.017057514 0.02304879 0.015872134 -0.0005377605 0.0026425328
-0.020619491 -0.0030388455 0.008610965 -0.021843866 0.0065295254 -0.017857645 0.028108677 0.022350306
-0.004422077 0.013250211 -0.0030603444 0.0113643035 -0.0014756245 0.02542527 -0.010218631 -0.014210033
6.6729284e-05 0.038179208 0.021152886 0.008314962 -0.011329568 -0.009126891 -0.012703362 0.015518444
0.02137681 -0.018563109 -0.014473987 -0.018605633 -0.017299356 0.018966692 0.034216214 0.0021490722
0.024865188 0.016514603 0.014817111 0.001852446 -0.0087933475 -0.0364144 0.0025793605 0.0027408218
-0.016504688 -0.020581525 -0.018995956 -0.021939294 0.008794041 0.013527202 0.04048979 0.020131402
0.02014872 0.029451247 0.024336947 0.00493952 0.03140142 0.0089629255 0.011561806 -0.014943786
-0.027711762 -0.023860417 -0.03690534 0.0020822515 0.007754441 -0.016888663 -0.00143103 0.007490052
0.019857815 0.008888326 0.0008070912 -0.018721702 -0.011830904 0.008334165 -0.0056318515 -0.02232623
0.0031750759 0.008222529 0.035685215 0.001622956 -0.016863339 -0.0071959114 0.014647137 -0.0016338654
-0.00730655 0.035189554 0.010224169 0.004912488 -0.009994479 0.004160595 -0.00022182486 -0.03470279
-0.007793528 0.013881728 0.018725608 -0.024977384 0.008880724 -0.00085845415 0.012048638 0.020707956
