saved_models/cnn/2024-06-04_23-12-26.pt (torch, 548512 bytes, 9 tensors)

module.0.weight f4 [32, 3, 7, 7]
00000000: af98 a83d 477d bf3d 1491 893c 6af0 c0bc
00000010: e771 803d 5604 a73d 16ac 343d f320 4abd
00000020: 7577 73bc a0db f7bb 412f 87bd 871f 8b3d
00000030: 0e36 b23c 8d9a 9c3c 77c3 a03b fac6 923d
00000040: d2da 153d be6f 9a3d de98 c8bb 91f5 66bd
00000050: 44cd debb d118 0dbc 7247 7cbb 7ecd d33d
00000060: 53c1 86bd d6e7 913c 52c6 39bd 5aad 183d
00000070: 751f b33c 26d5 05bc 6abe c73d 4db1 973d
00000080: 9a7e 07bd 9cfb 63bd 7c56 88bd f607 c33d
00000090: 2288 9dbc 5e07 903d 5c08 4fbd e1c8 2fbd
000000a0: cc83 bcbd 2536 a3bd cf87 3f3c 8e7c bcbd
000000b0: d3b9 0bbd f79b 56bd 4c03 96bd 00c9 4fbd
000000c0: 07fe babc 8b4f 1b3d 747b 21bb 9a7f 38bd
000000d0: 0a31 b23c dd03 953d d341 19bb 2706 513c
000000e0: 0f0e 753d 53e9 903a 48b3 d73c 4510 893d
000000f0: 4d71 90bb edca 6cbd 7112 0cbd 2718 58b9
00000100: 6c23 883d aa0d bbbc f110 b7bd a097 ffbc
00000110: 2c71 84bb b728 bdbd 0c9c a13d dde3 9a3d
00000120: 9e05 8dbd 5d19 96bb 7be1 b13c 5936 6cbc
00000130: 30a2 b1bd 06b9 033d f7e9 c7bc fc95 08bc
00000140: 4b97 af3d 0561 073d 8309 f4bc cff4 cb3c
00000150: 288c 61bd f318 593b c9a0 7d3d a02f 2f3c
00000160: 38d9 0b3d 4ba6 64bd dc9a 8e3c 114f d6bc
00000170: d3ff 003c 3fa6 b6bd 8e49 9bbd fecf e6bd
00000180: b28d 26bc 3c20 86bd 4228 ad3d a258 c739
00000190: cc78 573d 5250 073d f123 9e3d 9294 173d
000001a0: fc5c fe3c 0041 5b3d ac4d 52bd 510a a33d
000001b0: 9d54 5c3d 5869 973d 3e70 28bd 220d 8d3d
000001c0: d78c 89bd 614a 8abd 8364 403d a99a 3fbd
000001d0: 495d 1b3d e9cf 39bd b98c 61bd 9ceb 5bbd
000001e0: a351 c13c b816 85bd ae95 dfbc b477 073b
000001f0: 999f 8cbd d14c 8a3d 1b0d 083d 9537 873d
00000200: 903c 4bbd fd26 843d db0c 95bd 85e1 243d
00000210: 881c ae3d a75b 73bc 5c1f 31bd c796 323d
00000220: 71de 6cbd f144 433b 8798 57bd 1fcc 383d
00000230: 73f0 8dbc cfde 22bd 114a 8f3c 36b8 b9bd
00000240: 613e ca3c d943 563c b094 81bd 3565 ad3b
00000250: 6b09 fcbc 0713 a4bb 0c8c 81bd 6011 fa3c
00000260: ae94 aa3c 9ee4 a1bb 4054 293d 9776 633d
00000270: c1d9 2e3c 1cd2 58bd 2c8c ba3d b7ac 4fbd
00000280: 426e 65bd 93d4 6fbd 1766 14bc ab74 bbbd
00000290: e5b3 3e3d 61e9 c13d 2697 34bd 89f0 823c
000002a0: e714 b93c 7cba 7b3d 9066 4e3d 1a6e 3abd
000002b0: 5f59 9b3d f5eb 443d fb20 1cbd 4631 61bd
000002c0: 2110 aebd c8cf 443c 20b6 943d 6e61 bd3d
000002d0: 66db a13d c765 1b3d bb99 9abd 648c ecbc
000002e0: 777f fabd c7da c83b 413e 52bd 2770 753d
000002f0: 3667 883b 8f48 c1bd bd91 25bc 5ef8 a1bd
00000300: 7b75 cc3c b166 fc3c 90fc 10bd dd8b cd38
00000310: cdf5 d6bb 1007 6e3d 6acc 93bd 2261 c93c
00000320: 64e4 8abc d4ee 9c3c d964 5a3d e1ce febc
00000330: e759 903b cfe9 c3bc a594 bf3c 4415 7dbd
00000340: d09e 0bbc b331 4d3d fc08 b4bd fdfb 4bbd
00000350: 3715 65bd 00ee b8bd 4825 8fbd 530b a5bd
00000360: 1e36 53bd a0f8 7bbd 6968 c8bd aead 61bd
00000370: 4530 a0bc 9d01 8abd 23a4 933d 22af 213d
00000380: e5b7 d0bc c19d 17bd 13f3 18bd 4ea4 153d
00000390: d4b4 4b3d 7a9a 2cbc 0d67 ecbb 00ef de3c
000003a0: 336c f4bd b7cb cabd b800 d1bd a919 14bc
000003b0: 0d63 0c3d 4723 55bd e87a 15bc 31c3 4cbd
000003c0: 2cfe 393d d38e 7dbd f965 a43d 7780 6e3d
000003d0: 8c3d 4dbd 71b9 953d bea5 803c 81ed 093d
000003e0: b740 e73d 6a2a 8d3d 7e9d b4bc a634 c33d
000003f0: f3f7 4b3d bb94 353d 66cf 7fbd 940f 783d
0.08232247 0.09350067 0.016792811 -0.023552138 0.06271725 0.08155124 0.044109426 -0.04934783
-0.014860024 -0.007564023 -0.0660081 0.06793123 0.02175429 0.019116664 0.0049061137 0.07166858
0.036585636 0.075408444 -0.006121739 -0.056386534 -0.006799372 -0.008611874 -0.0038494733 0.10341929
-0.065798424 0.017810743 -0.04535515 0.037274696 0.021865586 -0.008168494 0.097531155 0.07406864
-0.03307972 -0.055659875 -0.066571206 0.09523003 -0.019229952 0.07032655 -0.05054508 -0.042916182
-0.09204826 -0.079693116 0.011690094 -0.092034444 -0.034112763 -0.052394833 -0.073248476 -0.050728798
-0.022826208 0.037917655 -0.0024640234 -0.045043565 0.0217519 0.072761275 -0.0023385182 0.0127578145
0.05982786 0.0011055864 0.026330605 0.06692556 -0.0044080378 -0.057810713 -0.034197275 -0.00020608363
0.06647381 -0.022833664 -0.08938778 -0.03120023 -0.0040418115 -0.09236281 0.07891092 0.07562993
-0.06885837 -0.0045806603 0.021713963 -0.014417254 -0.08673513 0.032158874 -0.024403555 -0.00833654
0.08573779 0.03305151 -0.029789692 0.024897007 -0.055065304 0.0033126443 0.061920915 0.010692507
0.034142703 -0.05582265 0.017407827 -0.026160749 0.007873493 -0.08918428 -0.07582389 -0.1127014
-0.010165619 -0.06549117 0.08454944 0.00038022274 0.052605435 0.033035584 0.07721699 0.037006922
0.031050198 0.053528786 -0.051343605 0.07960952 0.05379163 0.073931396 -0.041122667 0.068872705
-0.06716316 -0.06752468 0.046970855 -0.046778355 0.03793076 -0.045364294 -0.055065844 -0.05369149
0.023598498 -0.06498474 -0.027293053 0.0020670714 -0.06866378 0.06752933 0.033215623 0.06602398
-0.049618304 0.06452749 -0.072778426 0.040254135 0.08501536 -0.014853395 -0.043242797 0.043600824
-0.057829324 0.002979573 -0.052635696 0.04511654 -0.01732657 -0.039763268 0.017491372 -0.090683386
0.024687948 0.0130777 -0.06327188 0.005291606 -0.03076621 -0.005007151 -0.0632554 0.030525863
0.02082285 -0.0049405834 0.041340113 0.055533018 0.010672034 -0.05293475 0.09108767 -0.050701823
-0.056013353 -0.058552336 -0.009057543 -0.09153112 0.04655828 0.094683416 -0.04408946 0.015983837
0.022592975 0.061457142 0.05039078 -0.045515157 0.075854056 0.04807659 -0.03811739 -0.05497863
-0.0849917 0.01201243 0.072613 0.09247099 0.07903175 0.03793886 -0.07548853 -0.028875537
-0.12231343 0.006129596 -0.0513289 0.05992141 0.0041626943 -0.094376676 -0.0101055475 -0.079087004
0.024958363 0.030810686 -0.035397112 9.801213e-05 -0.0065600635 0.058112204 -0.07216723 0.02458245
-0.016954608 0.01915685 0.053318832 -0.031104507 0.0044052484 -0.0239152 0.023386309 -0.06178786
-0.008521751 0.050096225 -0.08790776 -0.04980086 -0.055928435 -0.0902977 -0.06989533 -0.080588005
-0.051565282 -0.061516404 -0.0978554 -0.055097274 -0.019554267 -0.06738589 0.07209041 0.03947366
-0.025478313 -0.03701568 -0.03734119 0.036533646 0.049732998 -0.010534877 -0.007214433 0.027213573
-0.119347 -0.09902137 -0.10205215 -0.009039321 0.03427415 -0.052035596 -0.009123541 -0.049990837
0.045408413 -0.061903786 0.08027262 0.058227982 -0.050107524 0.07310761 0.015704032 0.033673767
0.1129164 0.068928555 -0.022047754 0.09531526 0.04979701 0.044331294 -0.06245365 0.06056173

module.0.bias f4 [32]
00000000: 1a21 6c3d 2ea6 acbb 7622 2b3e b8e7 fa3d
00000010: 8c09 95bc 997b a1bb 2a55 1a3e 65a2 2c3d
00000020: a9d5 1e3b 5b85 46bd 3314 9cbc f69a 0b3e
00000030: 1c26 b23d a451 cd3d 77c6 f23d f3ee b6bc
00000040: 1a8b ef3b 84ed d53d 06b8 873d cf4d 633d
00000050: 1be1 673a 9aa1 da3b 21b9 013d da87 5b3c
00000060: cca2 233d d6fe 773d 4588 31bd 01c9 623d
00000070: 33a6 4abd 09c3 eb3c 4c79 f6ba 86f5 f33c
0.057648756 -0.0052688336 0.16712365 0.12251228 -0.018193029 -0.004928064 0.1507155 0.04214706
0.0024236238 -0.04846702 -0.0190526 0.13633332 0.08698675 0.10025337 0.118542604 -0.022330737
0.0073102834 0.10445693 0.066268966 0.055494126 0.0008845494 0.0066720964 0.031670693 0.013399089
0.039950177 0.060545765 -0.043342847 0.055367474 -0.049474906 0.028779523 -0.001880446 0.02978016

module.3.weight f4 [64, 32, 3, 3]
00000000: 7fdb 50bc f01f 8fbd 2f7b b2bc b4a1 56bd
00000010: 030c a8bd 2d15 5ebd da10 4bbd 95d5 49bd
00000020: f149 60bc add5 723c f7ce fdbc 13e5 103d
00000030: fa07 3ebd b6f5 92bc e6ff a3bb 46e1 7b3b
00000040: 50ea cc3b d7a1 893c b4c7 9abd 2405 ac3b
00000050: 3d88 3c3b f6ab 30bd 3b73 6cbd c2ab 053c
00000060: 71dc 203c d10f 24bd 28c0 913c d2fa e839
00000070: b602 36bc 95a3 913d cb42 9bbd 7f17 83bd
00000080: d396 42bd 112f 5f3c f3d7 ff3c 7c87 e7bc
00000090: 4eb4 36bd c223 053d 868f d83c a44f b8bb
000000a0: d6db e1bc 2b91 febc a288 443d 28d0 fe3b
000000b0: 43d9 8a3c 146c 7f3d 91d3 d43b bb69 ffbc
000000c0: 5403 b93c 09e4 2cbb 6f3e 953b 880d 4a3d
000000d0: 8168 003c 631a 883c c052 7dbd 79a3 c33c
000000e0: 10f7 42bd 811e 64bd 198d c43c 0480 3ebd
000000f0: 3d9e 2cbd 7544 8ebd b661 64bd 4fdf 9e3d
00000100: c5cc 173d 8c97 0f3d afbe 91bb c28e fc3c
00000110: 7b87 543d c0f8 05bd 8a5b fa3c 2eca 603c
00000120: e806 363d e43b 493d d5e5 4fbb 60fb 313d
00000130: eb8b e23c 2b0f 113d 5892 223d 4554 57bd
00000140: f25b 13bc b681 b83c 06c4 43bc 7b1b 423c
00000150: d84c 583d 2c4d 2cbd 433f f73c 1616 1abd
00000160: 5774 543d dc41 5dbd ec58 55bc 617f 0abb
00000170: 9932 8e3b 5341 8f3d 73c5 783d a5c9 543d
00000180: 70e5 033d c276 873c 5233 c3bc d4dd 793d
00000190: 47ee da3c d385 33bb 10c4 b0bc 0f8c 46bd
000001a0: dad6 cfbb e128 3f3d 5f36 1b3c 09d8 90bc
000001b0: 0703 4bbc 52fe 03bd 1579 96bc 64c3 5f3d
000001c0: 6146 953d 1ca6 6c3d c4a1 323d 3a8a 983c
000001d0: 1291 1dbc fae0 cebd 398b a9bd b910 54bd
000001e0: ade6 5fbd 2470 423c a5cd 8dbc b78c 4dbd
000001f0: 8483 13bd cf39 6fbd c5a7 ca3d 245c 5d3d
00000200: 71e8 60bc 5cee 163d 04ad 62bb b99c dfbb
00000210: 77ec a93b 9766 debb 16ff 0bbc d517 2e3d
00000220: 617e 53bd 91c6 013c b8a6 98bc 000b ac3c
00000230: 7172 72bd f8cb 233c 22d9 a53c a6c3 86bd
00000240: 6f9c 85bd 8b4a 92ba 6cf7 a0bc e3c8 783c
00000250: 8077 3d3c bbf1 cbbd 20c8 75bd 81e7 cbbd
00000260: 2ea3 4cbc cdd6 533d 6c9b 06bd 2d59 c5bc
00000270: 79d0 d9bd f12a 30bc eddc 86bb 8c79 a2bd
00000280: 84b1 f8bc 72eb 683d bb36 dd3c 784c 8abd
00000290: c7e7 98bc acb7 b1bd 1f6b 96bd c4c5 08bb
000002a0: 5d58 7cbd 0f5a d83c 510a 17bd e9ee d23c
000002b0: 1e41 eabb a207 1ebc 4798 843d 0535 9b3c
000002c0: cac9 0bbd 4a7f ed3b b8e7 503d a3ef cf3b
000002d0: 08c3 973d 47a7 113d e5de 883c c25e c0bb
000002e0: 5d47 9d3c 3607 233b 3a59 0cbc 5a51 1abd
000002f0: 21c4 9d3c 79c3 df3c de5d 56bd a509 93bc
00000300: 6892 cdbb 6b35 483c e928 61bb ae2b 303d
00000310: 0b62 263d 1886 00bd b1e1 0a3c 1288 ecb8
00000320: 4761 433d 6a27 cbbc 4b53 ea3c 3d86 8e3d
00000330: 33f5 8c3c 72d5 4f3d 0b6c 333d 8ecb a73d
00000340: 32c7 0e3d 3bdc a63d 8516 b33d 1272 b63d
00000350: 0804 0dbd ad77 1dbc 0e43 24bc a9f1 5d3d
00000360: 73a9 7abd 1fcb bc3c 73e4 8b3c 8e88 813c
00000370: 98c3 78bd ce81 5dbd 1e9e d2bc 2856 f8bc
00000380: d3ff 23bd 7675 1c3d 7cd7 b2bc 5e29 823c
00000390: a89e 253b 2700 8a3d 0287 00bd a543 f03c
000003a0: 3071 463d ab02 493d 3c2a 17bd 1568 ba3c
000003b0: 03d2 c83c 9bc4 443d 0bae 243d ca08 f73c
000003c0: eb23 213d d63c e13c 106e 3fbd 3b5e 7e3d
000003d0: a280 443d edbd b7bc cabb 453d 4b4d 303b
000003e0: b3b1 953d 55e2 a93d 51d5 393d b87d 3a3d
000003f0: fc20 e83b 8355 dbbc e8d9 933c 805e f6bc
-0.012747644 -0.069885135 -0.021787254 -0.052400306 -0.08205416 -0.054219414 -0.049576618 -0.049275953
-0.013689504 0.014821452 -0.030982478 0.035374712 -0.046394326 -0.01793943 -0.0050048707 0.0038433834
0.006253518 0.016800804 -0.075576216 0.0052496362 0.0028767728 -0.043132745 -0.05772708 0.008158626
0.009818182 -0.040054146 0.017791823 0.00044437364 -0.011109045 0.07111279 -0.07581099 -0.06400966
-0.04750712 0.013622061 0.031230902 -0.028262846 -0.044605546 0.032504804 0.026435625 -0.0056247283
-0.027570646 -0.03107508 0.047981866 0.007776279 0.016949302 0.06235893 0.0064949472 -0.031178346
0.022584595 -0.0026381037 0.004554562 0.04932931 0.007837416 0.016614145 -0.061846495 0.02388166
-0.0475989 -0.055693153 0.023993062 -0.046508804 -0.042143095 -0.06946651 -0.055757247 0.077574365
0.037060518 0.035056636 -0.00444778 0.030829791 0.051887017 -0.03270793 0.030561227 0.013720078
0.04444018 0.04912938 -0.0031722684 0.04345262 0.027654609 0.035414856 0.039690346 -0.0525706
-0.008994089 0.022522788 -0.011948591 0.011847372 0.05280766 -0.042065784 0.030181533 -0.03761872
0.051868763 -0.054017887 -0.013021689 -0.0021133053 0.004339528 0.069948815 0.060735177 0.051950116
0.03220123 0.01653612 -0.023828182 0.061002567 0.026724948 -0.0027392998 -0.021577865 -0.048473414
-0.006342751 0.046669845 0.009473412 -0.017681139 -0.0123908585 -0.03222496 -0.018368283 0.0546297
0.07288814 0.0577756 0.043611303 0.018620599 -0.009617107 -0.101015046 -0.08278508 -0.05177376
-0.05466335 0.011867557 -0.017309973 -0.050183024 -0.036014095 -0.05840474 0.09895281 0.05404295
-0.013727293 0.03684841 -0.0034587989 -0.0068241027 0.0051856595 -0.006787132 -0.008544704 0.042503197
-0.051634196 0.007920877 -0.018634185 0.021001339 -0.05919117 0.00999736 0.020245139 -0.06580286
-0.06523978 -0.0011161132 -0.01964923 0.015184614 0.011564136 -0.09958216 -0.060005307 -0.09956265
-0.012490077 0.051718522 -0.032863066 -0.024090374 -0.10635466 -0.0107524255 -0.004115692 -0.079333395
-0.030358084 0.056865163 0.027003637 -0.067528665 -0.018665208 -0.08677611 -0.073446505 -0.002086983
-0.061607707 0.02641013 -0.036875073 0.025748687 -0.007148876 -0.0096453745 0.06474357 0.01894618
-0.034127988 0.00724784 0.051002234 0.0063457056 0.07410246 0.03555992 0.016707847 -0.005870671
0.019199068 0.0024876124 -0.008566195 -0.03767524 0.01925856 0.027314888 -0.052335612 -0.017948935
-0.0062735565 0.012219767 -0.003435666 0.043010406 0.040620845 -0.03137788 0.008476661 -0.00011278702
0.047700193 -0.024799068 0.02860417 0.06959198 0.017206764 0.050740667 0.04380421 0.08193122
0.034857936 0.081474744 0.0874453 0.08908476 -0.034427673 -0.009611052 -0.010025753 0.054185543
-0.061196756 0.023046074 0.017076707 0.015812185 -0.060733408 -0.05407887 -0.025710162 -0.03031452
-0.040038895 0.038197957 -0.021831267 0.015888866 0.0025271568 0.0673831 -0.031378753 0.02932913
0.048447788 0.04907481 -0.036905512 0.022754708 0.024514204 0.04803906 0.040205043 0.030155558
0.039340895 0.02749483 -0.046735823 0.062101584 0.047974236 -0.02242943 0.048274793 0.002690154
0.07309284 0.082951225 0.04536945 0.04553005 0.00708401 -0.026774174 0.018048242 -0.030074358

module.3.bias f4 [64]
00000000: bcf8 0c3d 82d9 51bd 137b bfbc 8508 003c
00000010: 7fc7 283d 0c62 b63d 845e 423d f45f aa3c
00000020: 5a20 833d 774f 653d 13b2 23ba 6da7 0d3d
00000030: c98e 3d3c dc40 9b3d 3146 c8bc 1b4a 41bd
00000040: b916 e93b 1558 1c3d d3b0 c93c 9c4a b4bb
00000050: 9fdb 81bc b8c6 583d fa9b 693d 512d f63c
00000060: f134 0fbd 5928 ef3c 0988 423d 81e9 be3b
00000070: 70ef 37bc e5a1 953d b06b dd3c f4fd 503d
00000080: 2ee2 6eba 709f e9bc 3a88 37bd 501e 893d
00000090: d4b4 413d 9656 cd3d 26af 80bc 5338 273d
000000a0: d39a b33d e3ac 0ebc b625 b03c ab48 dbbc
000000b0: 5649 ef3b a1e5 0a3d 52e4 03bd d7d1 7b3d
000000c0: 31d2 413d e9cd 873d 1812 0e3d 5a07 0c3d
000000d0: 159e 58bd 833b c83d e054 a23b b89d e5bc
000000e0: d3a9 22bd 8e7e 583b 8c63 793d 1715 133d
000000f0: f373 c93d 99b5 a43d acfb 043d 537f 57bd
0.0344169 -0.051232822 -0.023374116 0.007814531 0.04120588 0.0890542 0.04745342 0.020797707
0.06402655 0.055983987 -0.00062444917 0.034583498 0.011569687 0.0758073 -0.024447532 -0.047189813
0.0071133045 0.03816994 0.02462045 -0.005502058 -0.015851794 0.052923888 0.057033516 0.030050905
-0.0349626 0.029194044 0.047493014 0.0058261757 -0.01122652 0.073062696 0.027028888 0.05102344
-0.0009112683 -0.028518409 -0.04480765 0.06695235 0.04729159 0.100262806 -0.015708517 0.0408252
0.08769765 -0.008708212 0.021502357 -0.02676805 0.0073024435 0.033910397 -0.032200165 0.061479416
0.047319595 0.06631071 0.034685224 0.0341867 -0.052885134 0.09776976 0.0049539655 -0.028029308
-0.03971274 0.0033034417 0.06088595 0.035908785 0.09836569 0.080424495 0.032466576 -0.05261166

module.7.weight f4 [64, 64, 3, 3]
00000000: befc 023d e67a 29bd 251d 76bc acd5 693c
00000010: fde3 2abd 80a6 5dbc c503 89bc 0851 043d
00000020: c258 f53b ea0a ad3c 4990 bfbc 4073 90b9
00000030: f180 953c 6f74 8b3c 5668 0abd 7c11 0abd
00000040: 0670 473d 9c69 13bd 3881 bcbb bdb5 2d3d
00000050: e758 2f3c a5f4 b7bb 26aa 55bd 45a9 97bc
00000060: 80c2 1f3d 83d9 15bd e5dc cb3c 55ee 5c3c
00000070: fe40 14bd e496 00bd 5c74 863a ec92 0b3c
00000080: 5f7b 48bc a9ac 2f3d f311 9b3c 9d4e 18bd
00000090: c7f5 85bc c3f4 733c d5d0 07bc 4bf2 c33c
000000a0: 4915 e93c 554b 13bd b579 033d 2f09 b639
000000b0: e718 19bd 7f61 ff3c 42ec babc 152e cbbc
000000c0: ab5b 813c 8b5f 753d 22be d93c 4c29 403d
000000d0: 1527 e73c c2fb 5abd 4efb 013d 4b85 3e3c
000000e0: 8317 8ebc 599d 33bc 9401 02bc f197 fe3c
000000f0: ce3f f73c 69f3 cb3c 613b e73c 8d80 6a3c
00000100: 879a 17ba 65c7 22bd 9cf2 b9bc d54c c4ba
00000110: d8bc 3a3d a40b ce3b d07a e93c bdb2 033d
00000120: 0253 2bbd 9255 b73c 6212 be3c 73dc a73c
00000130: 6043 2c3d 47c5 1b3d 7a63 09bb 8900 82bb
00000140: 0221 87bc 525d b33c c1f9 69bc 6d63 b43c
00000150: 93a9 18bb 6861 193c a09d f23b 5202 17bc
00000160: a460 053d 0d76 0d3d 2cb3 0b3d d4d5 1bbc
00000170: 6fc5 38bd a9da c5bc 571c 083d d952 7d3c
00000180: 1671 8e3a 5a4e 4b38 5be9 423d 34af faba
00000190: 9d18 e13c 9825 e43c 93f8 cdbc d300 e13b
000001a0: a3d4 3a3d a480 33bc 0981 febc 3d10 26bc
000001b0: b713 abba ce95 3dbc 3c6c c1bc e488 473d
000001c0: 0170 173b 547a 06bb 1d90 00bc 3c8d 06bd
000001d0: f4a9 86b9 1aee 31bd 7aa5 5a3c 273b 41bc
000001e0: 6abb eabc 84ab 1ebc f8e8 ec3c 9da2 f6bb
000001f0: 85a1 72bc c375 e73c 3706 9e3b 04ea 983c
00000200: a580 7f3b c163 16bb 3e03 b4bc 7be0 073d
00000210: a9ae 0a3c 3239 f0bc f8ba 3e3d bbe4 02bd
00000220: 15e8 093d 6c49 d33b cd10 103c 4210 d43c
00000230: ab2f de3c 0131 30bd 9f54 27bc d842 1d3d
00000240: 5290 13bd 1b4d c0bc dcb0 b7bc e5b8 ca3c
00000250: 0fc7 b43b e7b0 543c 50b1 fdbc 87d3 593d
00000260: 0266 0c3d d1b6 fdbc a785 e4bb 186f ad3c
00000270: b9b9 e3bb 739a fbbc 18f7 063d 8a24 94bc
00000280: e019 103d 5ce4 243d 0652 d4bc 97d0 3ebd
00000290: 6139 1dbc 00d4 fbbc 9666 50bc 8d45 2d3d
000002a0: e561 a8bb 43a1 1e3c 39e8 7c35 d5fc 423c
000002b0: c3e2 063d 031c 51b9 9aa4 2a3d a441 c2bc
000002c0: 9beb 9c3c 8725 e3bc 5d4a 823c 9aef 2b3d
000002d0: 62e6 843c 9c43 b4bc dafa dfbc 6197 c53b
000002e0: 9b1b b43c 20e5 053d 3e96 5fbd 6341 8fbc
000002f0: 86dc 5f3b 320f f23b a0bc 3e3b c685 15bd
00000300: 0df9 12bd 7210 aebc 880e 623c 8146 153d
00000310: 97ee 323d 365a 37bd d8a4 b1bc 4efb 3fbc
00000320: 7e5f 223c 98d9 c5bc d8db 0cbd 0505 913b
00000330: da2c 3d3c 02b2 4a3c 2fcf 02bc 364c dcbc
00000340: 0c79 cd3c 0786 25bd 1e7b 233d 4933 2dbb
00000350: a033 493c b708 1e3c 8d59 dcbc 75e8 ebbc
00000360: 9c77 a6bc c72c b03b 5fc4 0abd fe4a 8cbc
00000370: bf4a 59bc f63b 593d 087b 243d d0fb e9bc
00000380: 4857 b8bc 892c d03b 0968 1d3d d696 133d
00000390: 4a17 bd3c 9786 23bd 1d42 e7bc 9046 c83c
000003a0: 32bb c43c 1036 d6bc 45ec 4ebc 9638 febc
000003b0: 1514 c6bc db3e 553b 5305 b73c 71c6 97bc
000003c0: 8e2e 9fba 6aa9 e0bc d20c 4cbb c617 b1bc
000003d0: 8ae9 34bd 0ca5 1e3d c384 a83c b799 aabb
000003e0: a75e 063d ffe2 133c a8e5 293d c318 1e3d
000003f0: 5fd5 a0bc 3fa2 8ebc 78bb ea3c 0d9b e53b
0.031979315 -0.04137697 -0.015021597 0.014272135 -0.041721333 -0.013528466 -0.01672543 0.03230384
0.0074873874 0.021123368 -0.02338423 -0.00027551688 0.01824996 0.017023293 -0.03379091 -0.03370808
0.04869082 -0.03598939 -0.0057527088 0.042409647 0.010702348 -0.0056138807 -0.05216422 -0.018513331
0.03900385 -0.03658439 0.024885604 0.013484557 -0.036194794 -0.0313939 0.0010258066 0.008518916
-0.012236445 0.04288927 0.018929457 -0.037184346 -0.016352547 0.014889899 -0.0082895355 0.023919245
0.028452532 -0.035960514 0.03209849 0.00034720587 -0.037377264 0.03117442 -0.022817735 -0.024802247
0.015790781 0.05990557 0.02657992 0.046914384 0.028216878 -0.05346275 0.031733803 0.011628459
-0.017345196 -0.010962808 -0.007934947 0.03107831 0.030181792 0.02489634 0.028226556 0.014312875
-0.0005783219 -0.03974094 -0.022698693 -0.0014976511 0.04559025 0.0062880088 0.028500944 0.03215288
-0.04182721 0.02237967 0.023202125 0.02049086 0.04205644 0.038029935 -0.0020963834 -0.003967349
-0.016495232 0.021895085 -0.014280737 0.022020066 -0.0023294433 0.009361602 0.0074040443 -0.009216862
0.032562867 0.03453641 0.03410642 -0.00951143 -0.045110162 -0.024152117 0.033230152 0.015461647
0.0010867442 4.8471942e-05 0.047585826 -0.0019125701 0.027477557 0.027849957 -0.025142943 0.0068665533
0.045612942 -0.010955963 -0.031067388 -0.010135707 -0.001305214 -0.011571361 -0.02361118 0.048714533
0.002310753 -0.002051969 -0.007846859 -0.032849535 -0.00025685097 -0.043439962 0.013345117 -0.011793888
-0.02865382 -0.009684447 0.028919682 -0.007526709 -0.014809017 0.028254395 0.004822518 0.018666275
0.003898659 -0.0022947642 -0.021974202 0.033173066 0.008464494 -0.029324148 0.046565026 -0.031956416
0.033668596 0.0064479616 0.008793068 0.025886659 0.02712234 -0.043015484 -0.010213046 0.038393825
-0.036026306 -0.023474267 -0.0224232 0.024746368 0.0055168937 0.01298163 -0.030968338 0.053180244
0.03427697 -0.030970963 -0.0069739404 0.021171138 -0.00694963 -0.030713296 0.03295049 -0.01808383
0.035180926 0.040256843 -0.025918018 -0.046585646 -0.0095962 -0.030740738 -0.012719771 0.042302657
-0.005138623 0.0096820025 9.4215244e-07 0.0119011 0.0329311 -0.00019942228 0.041660883 -0.02371294
0.019155314 -0.027727855 0.0159046 0.04197655 0.016223136 -0.022004895 -0.027341295 0.0060300087
0.02198582 0.032689214 -0.05458664 -0.017487234 0.0034158542 0.0073870653 0.0029104128 -0.03650453
-0.035882045 -0.021248076 0.01379741 0.03644419 0.04368457 -0.044763766 -0.021685049 -0.011717631
0.009910462 -0.024151608 -0.034389347 0.004425647 0.011546338 0.012371542 -0.007983967 -0.026891809
0.025082134 -0.04041102 0.039912336 -0.0026428273 0.012280375 0.0096456325 -0.02689817 -0.028797368
-0.020320706 0.0053764316 -0.03387868 -0.017125603 -0.01326245 0.0530357 0.040156394 -0.028562456
-0.022502556 0.0063529653 0.038429294 0.03603252 0.023082394 -0.039923277 -0.028229767 0.02444771
0.024015043 -0.026148826 -0.012629573 -0.031032842 -0.024179498 0.0032538685 0.022341406 -0.018527241
-0.0012144612 -0.027424533 -0.0031135571 -0.021617781 -0.044168033 0.03873162 0.020571118 -0.0052063125
0.03280511 0.009026288 0.041478783 0.038597833 -0.019632993 -0.01741135 0.028653845 0.007007009

module.7.bias f4 [64]
00000000: d231 9bbc 4d70 703c 8b25 6a3c b207 553d
00000010: 3ed3 283d 9360 0f3d dda5 263d 9a46 803c
00000020: 401f 873d c8c5 873c ec72 633d 7fa4 a83c
00000030: 3980 573c c5f5 003d 523b b93c c25c f43c
00000040: a898 d6bc c7be 05bd 01e6 5d3d fa67 063d
00000050: 0f97 d13c 7ed7 473d 2f88 0dbc 1da9 503d
00000060: c917 4d3d bad2 833c cd47 1abd 215c 833d
00000070: 5752 233d 6f46 0abc 959b b03b a8f8 97bb
00000080: ef43 20bc 1c5a c83c 35c4 80bc 0a52 8c3d
00000090: 8f29 2d3a 1749 663d 00e4 4dbc 8c3f fdbb
000000a0: fe01 223d af07 25bc 8a43 34bc 2ea9 f2bc
000000b0: 87f0 623c dbd3 34bc e724 653d 408a 1abd
000000c0: 433d 723d f3d6 1abd 4d54 41bc 3c44 f53a
000000d0: ca50 543d 8d19 163d 9633 7d3d 4540 e4ba
000000e0: 7692 c1bb 1672 1e3c 83df b1bc 2fc3 793d
000000f0: 575a 0a3d f1fd 15bb df4f 083d 0616 abbb
-0.018944655 0.014675212 0.0142911775 0.052009292 0.04121708 0.03500421 0.040685523 0.015658665
0.06597757 0.016573802 0.05552952 0.02058625 0.013153129 0.031484384 0.022611294 0.029829387
-0.026195839 -0.032652643 0.054174427 0.032814004 0.025584726 0.048789494 -0.008638426 0.05094253
0.05007151 0.016091693 -0.03766613 0.064140566 0.039873447 -0.008439644 0.0053896406 -0.0046377964
-0.009781822 0.02445703 -0.015718559 0.06851585 0.0006605619 0.056222048 -0.0125665665 -0.0077285226
0.03955268 -0.010072633 -0.011002431 -0.029621687 0.0138512915 -0.011036838 0.055943396 -0.0377295
0.059140455 -0.037802648 -0.011799884 0.0018712352 0.05183486 0.03664546 0.061816774 -0.0017414173
-0.005907352 0.009670755 -0.021713024 0.060977157 0.03377756 -0.0022886957 0.033279296 -0.0052211313

module.10.weight f4 [128, 64, 3, 3]
00000000: 1ace 3c3d dc86 a9bc 746e 23bd 4940 8a3c
00000010: cf1d 113c bae1 533a 4d4c 15bc f6c5 3a3c
00000020: 35a4 da3c 8903 95bc 8c63 ec3c 52ff 8d3c
00000030: 2666 debb cdc1 433c ba61 c8bc d7cb 6fbb
00000040: 5af1 373d b6af 3a3d 7d4a e73b ce5f 73bc
00000050: 514d 87bc b32d 923c 316f a43c f0ed f7bb
00000060: 713f 2bbd c289 773c d234 1abb 6db4 023d
00000070: 4947 ad3b 1935 3d3d 6efa 213c e214 353d
00000080: 6e04 9c3d 9471 02bd a0af 1e3c 8cdb 8cbc
00000090: a1a9 a23c b8f9 963c 0fe8 2d3c cc73 463d
000000a0: 9f4a 063d 78b9 bd3c b412 1c3d a072 db3c
000000b0: 1f63 10bd 8b1c 973c ffce 07bd 864e 7bbc
000000c0: ac9a 43bc 6f96 653b 9ac9 41bd ad71 ad3c
000000d0: 2516 ce3c 667a aa3c 8e63 15bd bec0 0fbd
000000e0: 9776 02bd 41c8 113d d2d5 ad3c 375e 94bc
000000f0: 5d5b 653d 8d24 aa3c 44b7 7d3d b69d 1abd
00000100: 00af e7bc b3f1 01bc 8d70 70bd f198 973c
00000110: 2905 ed3b 44ed 05bd bcff 4c3c 7ef3 ed3c
00000120: 4311 7a3c 5152 673c 592f c5bc bcc1 ed3c
00000130: dbd0 763c e281 8fbc bcba c93c dfff 98bc
00000140: b585 3a3c 4e04 09bc 578b 8d3c da5a 7dbd
00000150: a03b bebc a3c5 e3bb ff57 abbc 0e5f 083d
00000160: 79c9 573c 3385 213a a050 40bd 451d 023c
00000170: 8083 d03b d91b 9f3c 228f c93b 3c6e 0ebd
00000180: f869 5e3c 5f88 cf3c 3da4 153c 35d4 393d
00000190: 7672 d23c c26f 0b3d 2886 65bd cb5f 8cbc
000001a0: eda0 af3c 2c2c 70bb 17f5 83bc daea 323c
000001b0: 51f7 da3c 641e 65bd 07cc 02bd d22f dbbb
000001c0: 3402 903c 0cff 81bc 5bf5 c93c f118 bdbc
000001d0: 492f c33b bbc2 36bd 9fe9 81bb 5ff1 8b3c
000001e0: dffb 80bc f80d 48bd ca3b 8fbb 2777 f73c
000001f0: 849e c5bc eaaa fb3c 1cda b3bc ae77 40bc
00000200: 3418 c4bc 6f46 703b 9434 153d 691b 95bb
00000210: e391 bdbc b745 04bd 6ee6 9abc 9cc2 be3c
00000220: 1854 ae3c 18f3 cb3c f09c b5bc bde0 d23c
00000230: 2659 07bd ef8f 04bd 3ab3 573c c572 763c
00000240: 1f35 53bd 8131 4f3c de27 28bd 0427 0ab9
00000250: 4528 79bc d55a 02bd 33d3 c9bc c2d4 4d3d
00000260: b0d0 4e3b 0238 0b3d f28e 91bc 2b49 67bc
00000270: f80e 7fbc 69ea a73c 4902 313d 7aaa 40bb
00000280: b987 af3c 86de 743b 24e6 1abd 3b1f 50bd
00000290: d845 b03c afe1 6dbd 30f2 60bd 385d 783b
000002a0: 3f1a 26bd b1b6 09bd 2727 8bbc 72b9 a43b
000002b0: 0629 f23c 094d 2f3b be8c 3fbc 9aad 58bd
000002c0: 1797 27bc 8faf 203d 8f35 663d d8d1 c03c
000002d0: 73a5 993b 910f 783b de08 7cbb 9050 4ebb
000002e0: f062 4c3a 791f be3c fe76 2dbd 3227 c3bc
000002f0: f617 0c3d a7bb eabb c653 9dbc c67d ec3c
00000300: a4ce 2e3c e486 04bd 9c64 bcbb adb7 5b3c
00000310: ddf2 2a3a dfd0 8dbc 6132 863c e628 79bc
00000320: d928 d53b cac3 5e3c 3169 39bd eaa5 103b
00000330: 175a af3b ffdf c93c 9d45 04bd c1f6 40bd
00000340: 14a0 443c e539 a8bc 1618 54bc 73ad bcbc
00000350: 1358 1bbd ee4b de3c ee3b 2bbc 167e 9dbc
00000360: ba3c 02bd a678 113d 76e9 ce3b 1303 9dbc
00000370: 3033 26bd 7c4e 8dbc 58ce b3bc 0938 dabc
00000380: b436 243d 4cd3 6ebd 500a 133b 8a17 aebc
00000390: b45a 6b3d 9662 f03c 51d3 253c 8da5 413d
000003a0: d251 743c cc3e e53c 26df 383d 1afb 57bc
000003b0: 5776 17bd cb72 b63c 5f32 0bbd d1f4 18bd
000003c0: 4e2a 8e3b d8c7 5f3b 9430 d7bb 3e79 af3c
000003d0: c37e e9bc 506e 17ba a9b9 f5bc 6a31 0cbd
000003e0: 60e6 c73c 17a3 8fbc 7597 4b3c a945 2ebd
000003f0: 05f6 31bd c7fa 1abd 8311 673d 601d 043d
0.04609499 -0.020694189 -0.03990026 0.016876357 0.008857205 0.0008082647 -0.00911243 0.011399737
0.026689628 -0.018190162 0.028856061 0.01733366 -0.0067870794 0.011948061 -0.024460662 -0.0036590004
0.044907905 0.045577727 0.0070584402 -0.014854385 -0.01651636 0.017844057 0.020072551 -0.007566206
-0.04180855 0.015108528 -0.0023530019 0.03191035 0.005288039 0.046193216 0.009886367 0.04420937
0.076180324 -0.031846598 0.009685427 -0.017194532 0.019856276 0.018429622 0.010614409 0.048450276
0.032786008 0.023159727 0.038103774 0.026788056 -0.03525078 0.018446228 -0.03315639 -0.015338546
-0.011938732 0.0035032292 -0.047311403 0.021172369 0.025157044 0.020810317 -0.036471896 -0.035095923
-0.031851377 0.035591368 0.021220122 -0.018111331 0.055995334 0.020769382 0.061942354 -0.03774806
-0.028281689 -0.007931161 -0.058701087 0.018505545 0.007233281 -0.032696977 0.012512144 0.02904677
0.015262905 0.014118747 -0.024070429 0.029023044 0.015064443 -0.017517988 0.024625175 -0.018676696
0.011384417 -0.008362843 0.017278356 -0.06185422 -0.02322179 -0.0069510504 -0.020915983 0.033293776
0.013170593 0.0006161511 -0.04695189 0.007941549 0.0063633323 0.019422458 0.006151096 -0.034773096
0.01357507 0.025333581 0.009133396 0.045368392 0.025689345 0.034042127 -0.056036144 -0.017135521
0.02143904 -0.0036647422 -0.016108079 0.010920251 0.026729258 -0.055937186 -0.031932857 -0.0066890502
0.017579176 -0.015868686 0.024653127 -0.023083182 0.0059565646 -0.044619303 -0.0039646174 0.017082868
-0.015745101 -0.048841447 -0.004371141 0.030208183 -0.024123438 0.030721147 -0.021954589 -0.011747284
-0.023937322 0.0036663075 0.036427096 -0.0045503867 -0.023140853 -0.032293048 -0.018908706 0.023286156
0.021280333 0.02489619 -0.02216956 0.02574193 -0.033044003 -0.03236383 0.01316529 0.015042012
-0.051564332 0.01264608 -0.041053645 -0.0001317524 -0.015207355 -0.031824905 -0.02463684 0.05025173
0.0031557493 0.03398896 -0.017768357 -0.014116566 -0.015567534 0.020497518 0.04321507 -0.0029398487
0.021427022 0.003736408 -0.037817135 -0.050811034 0.02151768 -0.058076557 -0.054918468 0.003789736
-0.040552374 -0.033621494 -0.016986443 0.0050269896 0.029560577 0.0026748797 -0.01169127 -0.052899934
-0.010228894 0.039229926 0.05620342 0.023537561 0.0046889125 0.0037851075 -0.0038457434 -0.0031481124
0.0007796725 0.023208367 -0.042349808 -0.0238224 0.03420254 -0.007163483 -0.019204985 0.028868567
0.010669384 -0.032355204 -0.0057492983 0.013410491 0.0006521175 -0.017311512 0.016381444 -0.015207505
0.0065051136 0.013596484 -0.045266334 0.0022071549 0.0053513157 0.024642942 -0.03229295 -0.047110323
0.012001056 -0.020535419 -0.012945196 -0.023031926 -0.03792579 0.027135815 -0.0104513 -0.019225162
-0.031796195 0.03551545 0.006314452 -0.019166505 -0.04057616 -0.017249338 -0.021948978 -0.026638048
0.04009123 -0.058306977 0.0022436567 -0.021251459 0.057459548 0.029343884 0.010121183 0.047277022
0.014912086 0.027984045 0.045134686 -0.013182426 -0.036978092 0.022271534 -0.033983584 -0.03734285
0.004338539 0.0034146216 -0.0065670703 0.021420117 -0.028502828 -0.0005776631 -0.029995756 -0.034226812
0.024401844 -0.017533822 0.012426247 -0.0425469 -0.043447513 -0.037836816 0.056413185 0.032254577

module.10.bias f4 [128]
00000000: 9c9f 3fbc 84b9 4cbc ccbf 6cbd f20a 80bb
00000010: 979b 6c3d 77ec 553b c170 10bd 6476 383d
00000020: eb7c e63c 4194 1c3d 9595 71bd 4c62 03bc
00000030: f2a4 193a 197f 963c 7aca e5b9 8485 2abd
00000040: 806d 663c 609a 81bd b483 713c 8788 273d
00000050: 7f7b 0cbd 9729 53bc 813a 6a3d 7a3d 20bc
00000060: 73d1 37bd 8698 6f3d d952 463d 7936 4a3b
00000070: eea0 edbc 0e82 f03b 39f2 913b e7c7 233b
00000080: c1f5 4a3b a0f2 f8bb 3094 d4bc 9c84 35bd
00000090: afb9 99bc 12c3 483c 772d 5ebc da48 78bc
000000a0: 7782 4dbd 580c 753c 5a3d 4c3c a0c4 6dbd
000000b0: 14a6 c9bc 79e4 083c dd05 4ebd ed97 04bd
000000c0: 6135 a43c 7c07 35bd aca4 1cbc c08e 993c
000000d0: d6dc 9d3c d9e1 e03c ac93 a43b b743 a73c
000000e0: e6de b4bc b129 ff3c 0445 6fbb 94b8 e93b
000000f0: 7467 acbc 90ea eebc 7534 0cbd 11c2 883c
00000100: 3ae2 64bd 3f12 97bb 613d 08bd 5c37 09bd
00000110: 3589 70bd 66b6 02bc 7724 9cbc f02e 51bd
00000120: d5a7 9e3b 6143 0cbc 9bf7 b93c f918 683c
00000130: cc6d 323d cec6 4e3d 0390 ae3c 5af5 17bd
00000140: c7dd dfbc c571 7dbd 4aed 65bc e8b3 a53b
00000150: 11df 0e3d edff db3b 9cfc ebbc cc08 8cbd
00000160: 90f0 57bd 8d10 feba 3fc4 b9bb b237 c6bc
00000170: e37e 18bd 8c53 58bd 62e7 fcbc 18bf 22bc
00000180: 1664 adba 6f0b dd3c 8743 00bd 1d0b d5bc
00000190: 8f01 17bd da03 293d 10af 20bc ea85 ccbc
000001a0: 8435 13bd 3990 ef3a 7590 153c 657b a03c
000001b0: 1714 a23a 7f87 5bbd 4077 c4bc 3a0e 16bd
000001c0: ce1f f6bc 74fc 8abc edac abbc 467b 123d
000001d0: 3366 3cbb e438 933b deaf 58bd c8d8 50bc
000001e0: d065 a4bc 1415 f53c 23f3 0c3c 64a3 5c3c
000001f0: ee4f e63c 0389 8d39 2399 31bd 36e6 57bd
-0.011695769 -0.012495402 -0.0578001 -0.003907555 0.05776557 0.0032642165 -0.03526378 0.04503478
0.028135737 0.038227323 -0.058980543 -0.008019041 0.00058610656 0.018371152 -0.0004382914 -0.041631237
0.014064193 -0.06328273 0.014740873 0.040901687 -0.034297463 -0.012888334 0.0571847 -0.009780282
-0.04487748 0.058495067 0.048418853 0.0030855222 -0.029007401 0.0073397225 0.004453924 0.0024990977
0.0030969235 -0.0075972825 -0.025949568 -0.04431592 -0.018765299 0.01225354 -0.013560644 -0.015154088
-0.05017325 0.014956556 0.012465799 -0.058048844 -0.024615325 0.008355253 -0.05029856 -0.03237145
0.020044984 -0.04419659 -0.009560745 0.018744826 0.019270342 0.027451443 0.0050224867 0.020418031
-0.022078943 0.03114781 -0.0036509642 0.007132599 -0.021045424 -0.029164582 -0.034229714 0.0166941
-0.05587981 -0.0046103294 -0.03326166 -0.03350006 -0.0587246 -0.0079780575 -0.019060357 -0.051070154
0.0048417845 -0.008560986 0.022701075 0.01416611 0.04356174 0.050482564 0.021308905 -0.03709922
-0.027327431 -0.061876077 -0.014033625 0.005056847 0.0348807 0.0067138583 -0.028806977 -0.06837615
-0.052719653 -0.0019383595 -0.0056691463 -0.02419648 -0.037230384 -0.05281405 -0.03087205 -0.009933256
-0.001322868 0.026982991 -0.0313144 -0.026006276 -0.03686672 0.04126344 -0.009807363 -0.024966199
-0.03593971 0.0018277235 0.0091286795 0.01959009 0.0012365606 -0.053596016 -0.023982644 -0.03663466
-0.030044463 -0.016966082 -0.02095648 0.035762094 -0.002874744 0.004492866 -0.052902095 -0.012746997
-0.02006808 0.029917277 0.00860289 0.01346669 0.028114285 0.00026995697 -0.043358933 -0.05270978

module.15.weight f4 [1, 2048]
00000000: 5f45 d73c 8037 083d 86ad b1bc 6641 08bc
00000010: 9ff3 6bbc 8e4a 44bc a5b2 10bc 32dc da3c
00000020: a008 103c 7019 143c 2172 e9ba 4e31 ca3c
00000030: 3438 e43b 204c f9bc 7131 323d a34b 9dbc
00000040: a850 c03c 9c8d 393c 4731 babb 9a9c b23c
00000050: a09e 4f3c 900c b5bc e7d2 36bd 88ab bf3b
00000060: 1e78 04bc 8b81 193d 8145 dc3a b574 8ebb
00000070: af65 0b3d 758a 60bc 4401 7c3c bb29 e1bb
00000080: 58ec e9bc cd6c c83c 81dc 5f3a d843 833c
00000090: 1f2b 963c b413 e4bc 7296 c63c cbc2 58bc
000000a0: f73a 91bb 4fcc 5f3c 648f 793c 34b3 29bc
000000b0: 4fb1 06bc 9a97 c1bb a158 383c 92dc 873b
000000c0: be58 13bc 20bd b93c ac68 f7ba b72f 85bc
000000d0: 7a06 2b3c 5d64 693c 27a1 c73c 8917 f93c
000000e0: 2dac 5abc 8843 6e3c 09aa 3bbd f225 873c
000000f0: 903c 563b ce84 83bc ee33 6ebc 24f2 053b
00000100: 14c1 a9bc 3db3 0f3c e6bd 42bc 5e86 e1bc
00000110: fdd0 323c 911a 98bc abd4 82bc 4309 93bc
00000120: 8bde e13a 8dae 2fbb 2487 be3c e303 75bc
00000130: 0993 a53c 2c07 993c b610 e63c e456 10bc
00000140: 8eb1 213c 6aff e73b b2d8 903c 71ce 893c
00000150: b748 9fba dac4 1cbd fb41 78ba 0592 ad3b
00000160: 2ba2 00bc cdf1 d23c 6a17 4b3c 4282 973c
00000170: 3c13 053c 67d2 973c 16d0 593c 191d 833c
00000180: e0e2 85bc 2e09 a83b 8451 31bb a8c0 05bb
00000190: 4131 0939 c4a0 2c3c c5bc cf3c 65e6 2a3c
000001a0: 40d0 12bb 3181 b836 2933 da3c f1bf debc
000001b0: cc7f f2ba 459e 20bd 2cfd 483c 40ce 993c
000001c0: 6dea 6abc c00a c83b fbd5 72bc b9a8 d4ba
000001d0: 9960 dcba bc5f 6fbc 08e8 053d de6b d43c
000001e0: b863 cebc d232 e8bc 5f3d a93c 7497 c33a
000001f0: 7635 b53a 2a0a 683c bbb7 1a3b e052 b4bb
00000200: 636c 82bc 5192 9c3c 686d 4c3b 7496 aeba
00000210: 295f b03c 791e 6f3c 974d d8bc cc63 763c
00000220: 2914 fd3c 5f23 ae3c 6c10 8fbc a12f e9bc
00000230: b2d4 08bb c3e5 dd3c 483e d03b 684c ddbc
00000240: f7e9 5e3c 8a57 d53c b356 9a3b 8888 19bc
00000250: 58e8 37bb d09b 883c f454 f53c cbc6 253d
00000260: 5bbc 05bc 5a72 973b 5918 0cbd cb43 b43b
00000270: 89bc 833c 47fa f1bc 15a0 13bd e751 2cbb
00000280: 0d93 ed3c 6ff4 053d 7564 5ebc 18b9 8e3b
00000290: 7597 37bc 3078 bfbb cb0f 60bc e4c9 023d
000002a0: 530b aebc c92e 24bd ba6b d33b 20fb 953b
000002b0: 49b3 00bc 0b0f 113d af99 ad3b 5ae8 5c3c
000002c0: abdd 023d 9cac a23c 1e87 a6bc 39cd 8f3c
000002d0: ebdb c13c 3939 803a a499 ce3c d405 a9bb
000002e0: 1af8 f93b 6f47 f2bc c853 0abd 726c 81bc
000002f0: e92d 8b3c 4ad3 e4bc b02d 273c 41c7 573c
00000300: 1f21 963c 6617 1abc c0f2 333b fa75 543c
00000310: eabf 01bc 88e5 47bc ddff d53c 514d 25bc
00000320: 9d8a d4bc 2674 583c b048 043d f8ac 81bc
00000330: 5bff 3b3c 30bb 5d3c b19a 48bd 521e b13c
00000340: c812 9d3c 6a4c 72bb 91f1 2bbc 6982 8c3c
00000350: 23a6 913c f0a9 c0bc 5df4 ddbc 9d11 9cbb
00000360: 22f6 373c 5d15 303d 54cb e33c afda c73b
00000370: f93e 93bc ffed 26bb 0484 433c eceb 333c
00000380: f838 99bc fb0b dabc 2df1 c4bc b6f0 863b
00000390: 3b5a d63c 768f 903c daf6 bcbc 7909 d03c
000003a0: b83c 05b9 6876 0dbc 2964 133d 576f 593c
000003b0: 95b9 c53b 5528 9c3c dd60 4bbc 3f8e a13c
000003c0: 975c 5c39 529b e23c df52 b23c c923 dfbb
000003d0: ff4c 3c3c 05a4 09bd 0e39 be3c bb8a 82bc
000003e0: 37f6 89ba 38dc 7c3b 0ba9 9b3b 9c40 c2bc
000003f0: 8db0 d8bc ab8b c0ba dafa 3f3c 7b85 73bb
0.026278196 0.033256054 -0.021689188 -0.008316373 -0.0144013455 -0.011980666 -0.008831655 0.026716325
0.008791119 0.009039268 -0.0017810502 0.024681713 0.0069647077 -0.030431807 0.043504182 -0.019201105
0.02347596 0.011325266 -0.005682144 0.02180319 0.0126720965 -0.022100717 -0.044634726 0.0058493055
-0.008085279 0.037477057 0.0016805382 -0.0043474087 0.03403252 -0.013704886 0.015381161 -0.0068714297
-0.02855508 0.024465943 0.00085396325 0.016023561 0.018331109 -0.027841426 0.02424166 -0.013230036
-0.004432078 0.013659551 0.015231941 -0.010357667 -0.008220985 -0.005907965 0.0112515995 0.004146167
-0.008993326 0.02267319 -0.0018875799 -0.016258104 0.010438556 0.01424512 0.024368836 0.03040673
-0.013346714 0.014542468 -0.045816455 0.016497586 0.0032689907 -0.016054537 -0.014538748 0.0020438517
-0.02072195 0.008770761 -0.011886096 -0.027529892 0.0109140845 -0.018567355 -0.015970549 -0.017948752
0.0017232461 -0.0026806921 0.0232578 -0.01495454 0.020211713 0.018680178 0.02808414 -0.008809779
0.0098689925 0.0070800083 0.017681453 0.016822072 -0.0012152408 -0.03827367 -0.0009470281 0.005296948
-0.007851164 0.025750065 0.012395719 0.018494729 0.008122262 0.018532945 0.01329424 0.016005086
-0.016343534 0.0051280474 -0.0027056644 -0.0020409022 0.00013083687 0.010536376 0.025358567 0.010430907
-0.0022401959 5.498667e-06 0.026635723 -0.027191134 -0.0018501221 -0.039213438 0.012267392 0.018775105
-0.014338118 0.006104797 -0.014821525 -0.00162246 -0.0016813456 -0.014610227 0.032691985 0.025930341
-0.025194034 -0.028344546 0.020659147 0.0014922456 0.0013825137 0.01416258 0.0023608047 -0.0055030435
-0.015920823 0.019112738 0.003119314 -0.0013319985 0.02152975 0.014594668 -0.026404185 0.015038442
0.030893402 0.0212571 -0.017463885 -0.028465094 -0.002087873 0.027087098 0.0063550808 -0.027013972
0.013605586 0.026042718 0.0047100424 -0.0093709305 -0.0028062072 0.01667586 0.029947735 0.040472787
-0.008162583 0.004621786 -0.034202907 0.0055012456 0.016081112 -0.029538287 -0.036041338 -0.0026293935
0.029000783 0.032703813 -0.0135737555 0.004355561 -0.011205544 -0.005843185 -0.01367564 0.03193082
-0.021245634 -0.04008368 0.006452051 0.0045770556 -0.007855245 0.035414737 0.0052978615 0.013483131
0.03194968 0.019857697 -0.0203281 0.017553912 0.023664435 0.0009782679 0.025219746 -0.0051581655
0.007628453 -0.029575078 -0.033771306 -0.015798781 0.016989665 -0.027932782 0.010203764 0.013170064
0.01832634 -0.009404993 0.0027457923 0.012967581 -0.007919291 -0.012200721 0.026122982 -0.010089234
-0.025945002 0.013211286 0.032295883 -0.015829548 0.011474456 0.0135333985 -0.04897565 0.021620903
0.019173995 -0.0036971816 -0.010494606 0.017152028 0.017779415 -0.023518533 -0.02709406 -0.004762842
0.011228116 0.042989124 0.027806915 0.006099067 -0.017974364 -0.0025471447 0.01193333 0.010981541
-0.018703923 -0.02661704 -0.024040783 0.0041180504 0.026166072 0.017646533 -0.023066927 0.025395142
-0.00012706488 -0.008634187 0.035984192 0.013271174 0.006034086 0.0190622 -0.012413231 0.019721149
0.00021015327 0.027661953 0.021768032 -0.006809686 0.011492967 -0.033603687 0.023220565 -0.015935292
-0.0010525648 0.003858341 0.004750376 -0.023712449 -0.026451373 -0.0014690062 0.0117175225 -0.0037158418
